trained_models/dql_snake_model.pth (torch, 17488 bytes, 4 tensors)

linear1.weight f4 [256, 11]
00000000: d180 f73c d28a 013f a680 e0be bd0c 12be
00000010: a545 3e3e e2ab bbbe 90aa 653e 3b4e 81be
00000020: 8351 8e3e 950c 013e 1d61 43be 24eb 1ebe
00000030: 95bf 80be 2b10 893e 5fd9 9cbe f5a0 9b3e
00000040: 46ed 00be edfd 993e 6d23 14bf 20ae 163c
00000050: 74fb f7be 4f85 ba3d 6812 8d3d 583d c6bd
00000060: 844e 52be 8fd0 37be 356c 903d c94b 90be
00000070: 29fd cbbd 16f2 b53e 64c9 d13d 40a6 a33e
00000080: 8509 c13d e2c8 d63e 7051 7e3d b2b4 89be
00000090: aa7e 8ebe 0ca6 e8bc 1114 d23d 618d e2bd
000000a0: 4cdb ac3c 4077 fdbd 4c06 343e 2f6e 99be
000000b0: 9cf0 b53e 5a5a f0be d2e0 063f 5487 20bd
000000c0: 39cc a5bd b943 763d a115 143e b323 a5be
000000d0: 0948 4a3e 358f 18be 075c 15be 58b3 ec3e
000000e0: 98e9 53be 903c 60be ecc9 7e3e 08d0 dc3d
000000f0: 8a97 03be a117 0fbf b627 91be 0cbb 46be
00000100: d258 ebbd a597 f53e 9af8 a73e e613 503e
00000110: 5466 26bf 01ac 113e 70b1 a03d e73e 833d
00000120: e71f 1fbe 38cc 5e3d 09ff 203e 9e22 26bd
00000130: c3d6 44be 2933 573c 9877 4f3e 7d8a 9ebe
00000140: 9faa b2be 4139 58bc a2f8 823e 034f 0b3f
00000150: 2c75 d63e 52e9 773e 4156 babd f120 c8be
00000160: 8c5d 89bd 3ea3 f93e 4c25 28bf cd92 23be
00000170: 5432 1dbe b181 06be 9e48 2abe 689d cfbd
00000180: 01bf 203e 13e3 343e 07b9 373e bf2a d3be
00000190: b01f 19bf 48f3 cd3e 7784 363e 4c7b 8f3d
000001a0: 3fc9 4e3e 93a2 363e aca2 ff3d 63ee 5a3e
000001b0: a222 6e3d e34f 94be 526d 7a3e 672d ce3e
000001c0: b94f aabe 2731 c4bd 8fa8 4a3d 0a5b d33d
000001d0: 99d6 3ebe 9f0a 9bbe ffaf 243d 0a78 e1bb
000001e0: b890 a5be 3e1b 5fbe 3e8b ef3e 9739 e1be
000001f0: 9d9e 9a3d 90a6 363d 3f3d 5b3e 7fb8 553e
00000200: 1a57 92be aef2 fb3b 7d58 f7bd ac7b 17be
00000210: e19e 8abd b47b 423e 8ec1 913c a26b b3be
00000220: 3e9b 7c3e e52a 81be ce41 da3e 08dc ccbe
00000230: 0e2c e6be 132e b8be b4fc 783e 4d83 30be
00000240: d9c5 a33e 2fcb e7bd 6da8 173e 6907 3cbc
00000250: 6b12 dbbe 40bd 1b3e 903d 66be 0918 9d3e
00000260: 35fb b9bd c6c8 afbe 8a7b 84be 395b 95be
00000270: 1f6a 6ebd c50b 93bc 678e 5e3e 2072 e6be
00000280: aa06 b83e fe54 26bf 9d90 ccbd 4201 30bf
00000290: dbf8 223c c0d4 203e c5a6 493e 9b57 47be
000002a0: 7092 d03e 1755 59be ed45 4fbd 8e0e 47be
000002b0: 0e90 71be 3ec8 57be cae2 81be 984d ac3e
000002c0: e876 633d c19e 873e c2ec eabe da69 1abe
000002d0: 8295 4b3e 3328 233e 8545 403e 5eab ba3e
000002e0: 28ed b93d 7e24 6d3e d5ea 993d 5b9c 50bd
000002f0: 601d 6c3e 2962 f2ba 9b24 80bc 73a1 82be
00000300: e736 2bba eb80 bcbd c136 213e a79b c93e
00000310: b059 82be 1335 7c3e ea3a f2bd 20f4 5c3d
00000320: ca98 d3be 108f d73e efc2 a9be c7fb d0be
00000330: 11b2 9abc 0190 c33e 6496 b9be b9b4 f5be
00000340: 3258 d0be 07c3 883d 8405 f33e 15a5 e2be
00000350: ffd8 38be 359d 06be a9e6 61be bc7d 8f3d
00000360: 85b8 81be 636d 673d e496 6a3e e32a 74be
00000370: e9ed 4b3e d7d1 60bd 2bc5 303e 858c 93bd
00000380: b894 b5be b851 94be 1b59 933e f9c4 693e
00000390: bd4f 893d 203e f9bc 5409 cebe 8215 84be
000003a0: 26f3 1fbe 4999 043f cb55 99bd 28d5 6dbe
000003b0: 23c0 adbd 2fc4 95bd ab7f 203d e3f8 da3d
000003c0: 2328 46be 3c12 5ebe 2795 b3be 5d8d b5be
000003d0: 524b b43d 6dc0 023c fbd5 3a3e e9ec c2bd
000003e0: 0d70 9ebe 5dc7 0d3e 80d5 a53d a045 68be
000003f0: 2f10 d1be c802 833c 5d78 92be cb5f 77be
0.030212792 0.5060245 -0.4384815 -0.14262672 0.18581255 -0.36654574 0.22428346 -0.25254998
0.27796564 0.12602456 -0.19080015 -0.15519387 -0.25146165 0.26770148 -0.3063459 0.30396238
-0.12590513 0.30076542 -0.57866555 0.009196788 -0.4843403 0.09107458 0.06888276 -0.09679669
-0.20537764 -0.17950653 0.07051889 -0.2818282 -0.09960396 0.3553626 0.1024349 0.31962776
0.09425644 0.41950136 0.062089384 -0.26895672 -0.27831012 -0.02839949 0.102577336 -0.11062122
0.021100663 -0.12376261 0.17580527 -0.29966876 0.35535133 -0.46943933 0.526868 -0.03919156
-0.08095593 0.06012318 0.14461376 -0.322538 0.19754042 -0.14898379 -0.14585887 0.46230578
-0.20694578 -0.21898103 0.24881715 0.10781866 -0.12850776 -0.5589543 -0.2835061 -0.1940729
-0.114915505 0.47967258 0.32806855 0.2032009 -0.6499989 0.1422577 0.078463435 0.06408482
-0.15539514 0.054393977 0.15722288 -0.040560357 -0.1922255 0.013134756 0.20260465 -0.30965033
-0.348958 -0.013197244 0.25580317 0.5441744 0.4188627 0.24210098 -0.09098483 -0.39087632
-0.06707296 0.48757356 -0.6568191 -0.15973969 -0.1535123 -0.13135411 -0.16629264 -0.10137445
0.15697862 0.17664747 0.17941676 -0.4124355 -0.59813976 0.4022467 0.17823969 0.07005939
0.20193957 0.17835455 0.12482199 0.2138 0.058138497 -0.289672 0.24455765 0.40269014
-0.3326395 -0.095796876 0.049477156 0.10320099 -0.1863655 -0.3028154 0.040206905 -0.006880765
-0.32336974 -0.21787736 0.4678592 -0.4398925 0.07549784 0.04459244 0.21410082 0.20871161
-0.28582078 0.007688842 -0.12077425 -0.14793271 -0.06768585 0.18992501 0.01779249 -0.35043055
0.24668595 -0.25228038 0.4262833 -0.4001162 -0.44955486 -0.35972652 0.24315149 -0.17237587
0.31986883 -0.11318051 0.14810343 -0.011476376 -0.4278749 0.15208912 -0.22484422 0.306824
-0.09081117 -0.34332865 -0.25875503 -0.2917116 -0.058206674 -0.017949948 0.2173401 -0.45008945
0.35942584 -0.6497344 -0.0998852 -0.6875192 0.009947027 0.15706158 0.19692524 -0.19467013
0.40736723 -0.21223865 -0.050603796 -0.19439146 -0.23590109 -0.2107248 -0.2536834 0.3365295
0.05553332 0.26488307 -0.45883757 -0.15079442 0.19881251 0.15933304 0.1877652 0.36458868
0.09078437 0.23158452 0.07515494 -0.050930362 0.2305808 -0.0018492389 -0.015642455 -0.255138
-0.00065313134 -0.09204277 0.15743543 0.39376566 -0.2545905 0.24629621 -0.11827643 0.053943753
-0.41327506 0.42101336 -0.33156535 -0.4081709 -0.018883737 0.38195804 -0.3624755 -0.47989443
-0.40692288 0.066778235 0.47465146 -0.44266573 -0.18051527 -0.13145907 -0.22060646 0.07006404
-0.2533609 0.056500804 0.22909123 -0.23844485 0.19914974 -0.05488762 0.17262714 -0.07204536
-0.35465026 -0.28968596 0.2877892 0.22829045 0.06704662 -0.030425131 -0.40241492 -0.2579766
-0.15620098 0.51796395 -0.07487067 -0.23225844 -0.08483913 -0.0731281 0.039184254 0.106920026
-0.19351248 -0.21686643 -0.35074732 -0.35459414 0.08803429 0.007980448 0.1824569 -0.09517843
-0.30944863 0.13845582 0.080973625 -0.2268281 -0.4083266 0.015992537 -0.28607455 -0.24157636

linear1.bias f4 [256]
00000000: f847 843b 7f25 393e c519 08be 6aa6 febd
00000010: 1a5f 1c3c cc60 0b3d b16a 253e 8065 11be
00000020: 82f4 37bd cc92 d7bc f652 753e 6570 a23e
00000030: 633e 02be a0dc 9fbd 6bff 963e a8ac 02be
00000040: 9966 63be ce4b 1cbe b3fa 80bd 5bf2 0abd
00000050: 6f30 52be 1f94 223e dd82 2a3e 7d32 103e
00000060: efe9 24be f461 043e e6d9 7ebe 9f8a 8b3e
00000070: 7b99 9ebe 8973 9fbe e115 b6bd 5dc2 643d
00000080: c734 81be 04aa 24be 90e7 80be 3516 82bd
00000090: 089c b8be bd4c 88bd 5882 e0bd 6246 6bbd
000000a0: fcf2 b2be 2c3f b53d 81c9 89be 8bdc 1b3d
000000b0: 5a58 4bbe b161 593c 2ffb 2a3e f787 0dbd
000000c0: a20e 5d3e 4754 04be 82df 57be 95ca bdbd
000000d0: f6a2 6fbe 2572 c13e fa15 8bbe bfbf 3bbc
000000e0: c059 2b3d c19e fb3d 9fb8 78be bd18 d43e
000000f0: c46f 48bd d54f 6f3c c322 05be 2d14 f6be
00000100: c39a cabd 2e3c 1dbd 8128 9cbe 26e1 ca3d
00000110: 08b5 6839 73fc 123e 6eae 59be 5b05 0abe
00000120: 239f a03c d997 3dbe 0a24 933e 8686 963d
00000130: b260 6ebe bd50 ecbd eefe 85be 7d05 01be
00000140: 6134 a8be f2bd adbe 986e bc3b 53c6 9fbc
00000150: 3287 1cbe fa51 03be aca3 953e 7703 ddbd
00000160: 4515 21be aa35 03be 69b6 0bbe c39b 2bbe
00000170: 0f96 5ebe bd64 d03c 5eeb 103b 39e7 56be
00000180: fc99 8dbe e4a1 da3d fa62 50be e94f 21bd
00000190: 40e1 e33d 9117 b7bd f260 3fbe d73e 06be
000001a0: feaa ecbc c379 023d 758d 1ebe dcff 61bd
000001b0: 209f 203d 7884 983e db6c 35be eaf6 30bd
000001c0: ad4c 43be e452 40be b0a5 a13e 0757 0ebe
000001d0: fc47 e8bc 778b 83bd 573e d5bd 9269 b2bd
000001e0: 2291 14bd 8377 aabe 903e dfbd d804 093e
000001f0: 7bf7 e53d 6f1f 40be c6a4 383c a347 cabd
00000200: bcb7 1dbe 3717 51be caba d6bd e15f 81bb
00000210: 87e0 e73e b1f2 5cbd df05 e9be 2a48 eabd
00000220: bee4 613d 561b 28be 318e 0a3d 30a7 95be
00000230: 637e 76bd 0da4 3c3e 1d37 47bc 48b1 9dbe
00000240: 72b4 8a3d 337a 4d3e b7ce b7be d922 01be
00000250: a64c 6dbd 0e11 653d 66b2 dc3c ee13 773e
00000260: 9fb8 5dbe fb62 0abd 4ba4 4e3d 11f6 1dbe
00000270: 0fbf 28be f494 5b3c e6be 37be 79b4 af3d
00000280: 745f e73e 5c75 bdbd f895 0cbe 2322 86be
00000290: 0809 0f3e 0995 e9be cd83 fb3b d6a5 df3c
000002a0: 77a5 2abd 7c26 a6bd 2e1d 86be b3b1 9ebd
000002b0: 36ad 68be 5532 2ebe 6196 adbe 378a 053e
000002c0: f071 a6be f07f 62bc fad5 babd b8bd 29bd
000002d0: 43b7 14be 9a46 24bd 157a c9bc 71d6 c8bd
000002e0: 643a db3c fb00 35be 9edc 8f3e 3d86 043e
000002f0: 32df 42be f683 253e 3949 c4bc a3e2 7f3d
00000300: afb8 5bbe 51bf 92be fc43 32be 72c5 a2be
00000310: c863 de3e 6f07 5a3e 96c9 cb3c ae90 84be
00000320: ad31 60be 6ded 0a3e 7277 27bd 6f11 27be
00000330: 0c61 b4bd 0237 13be dab9 37be 3f39 0cbe
00000340: c13c 5dbe fd18 71be 4bf5 afbd 6e7f d93b
00000350: 6ffb 4bbe a790 82be 5314 1fbd 9412 cf3d
00000360: 0a83 e7bd f5b5 c43e e266 103e a7c6 a5bd
00000370: 50eb d73e 6cb1 11be 8a0c 50be 2431 07bd
00000380: 02ea 46bd b249 22bd ab53 45be 90d2 37be
00000390: 2630 fdbd 67b1 d73d c9f0 75bd ca35 18be
000003a0: 4dae 58bd 9d1b d8be 5147 32bd 8b67 b03d
000003b0: fb85 43be a26d 06bd eefb 073f b7eb 29be
000003c0: 3c2d 34be 043f 52be 56d0 b4bd 256c 2ebe
000003d0: 779b e33e 3df2 edbd 02fa 5abe cb83 db3c
000003e0: 3bf9 573c 9c81 b0be f1e2 02bd 4925 99be
000003f0: 643b 543d e934 adbd a926 883e 37ab f23d
0.0040368997 0.1808071 -0.1329108 -0.12434085 0.009544158 0.03402786 0.16153981 -0.14198875
-0.044910915 -0.026315115 0.23957428 0.31726375 -0.12719111 -0.07805753 0.29491743 -0.12761176
-0.22207107 -0.15263292 -0.06297817 -0.033922534 -0.20526288 0.15876816 0.16651483 0.1408176
-0.16104864 0.12927991 -0.24887809 0.27254197 -0.3097647 -0.31142834 -0.08890892 0.05584942
-0.25235578 -0.16080481 -0.25176668 -0.06351892 -0.36056542 -0.06655262 -0.10962361 -0.05744017
-0.34951007 0.0884994 -0.26911548 0.038052123 -0.19857922 0.01326792 0.16697381 -0.034553494
0.21587613 -0.12922774 -0.21081355 -0.09267155 -0.23402008 0.37782398 -0.27165204 -0.01145929
0.04183364 0.12286139 -0.24289177 0.41425124 -0.048934713 0.014606436 -0.13001542 -0.48062268
-0.098928 -0.03838747 -0.30499652 0.09906225 0.00022192684 0.14354114 -0.21257946 -0.13478605
0.019607132 -0.18514957 0.28738433 0.07349877 -0.23279074 -0.11538837 -0.26171058 -0.1259975
-0.32852462 -0.3393398 0.0057504885 -0.019503748 -0.15285948 -0.1282424 0.29226434 -0.107916765
-0.1573077 -0.1281344 -0.13643803 -0.16758637 -0.2173693 0.02543866 0.0022112946 -0.20986642
-0.27656543 0.106754094 -0.20350257 -0.03938285 0.111269474 -0.08940042 -0.18689325 -0.13109909
-0.02889013 0.031854402 -0.15483649 -0.055175647 0.039214253 0.29788566 -0.17717306 -0.043204226
-0.19072218 -0.1878162 0.31571722 -0.13900386 -0.028354637 -0.06423085 -0.10412281 -0.08711542
-0.036271222 -0.33294305 -0.10900605 0.13380754 0.11228844 -0.18761991 0.011269754 -0.09876945
-0.1540212 -0.20419012 -0.10484846 -0.0039481972 0.45288488 -0.053942386 -0.45512292 -0.114395455
0.055149786 -0.16416678 0.03382701 -0.29229116 -0.060179126 0.18421955 -0.012159136 -0.30799317
0.067726985 0.20066147 -0.35899898 -0.1261095 -0.057934426 0.055924468 0.026940536 0.24128696
-0.21652459 -0.0337858 0.05044965 -0.15425898 -0.16479133 0.013402212 -0.17943916 0.08579344
0.45190012 -0.092509 -0.13729084 -0.2619792 0.13968289 -0.45621517 0.007675624 0.027300756
-0.041661706 -0.08112809 -0.26194137 -0.07748737 -0.22722325 -0.17011388 -0.33903793 0.13041006
-0.32508802 -0.013824448 -0.09122844 -0.041440696 -0.14523034 -0.040106393 -0.024594346 -0.098065265
0.026761241 -0.17676155 0.28098005 0.12941833 -0.19030455 0.1616362 -0.023960697 0.062471997
-0.2145717 -0.28661588 -0.17408746 -0.31791264 0.43435502 0.21291898 0.024876397 -0.25891632
-0.2189395 0.13567133 -0.040885396 -0.16315244 -0.08807573 -0.14376453 -0.1794199 -0.13693713
-0.21605207 -0.23544689 -0.08591708 0.0066375053 -0.19920133 -0.25500986 -0.038837742 0.10110965
-0.113042906 0.38420072 0.14101747 -0.080945306 0.42171717 -0.14227837 -0.20317283 -0.03300585
-0.04856301 -0.039621063 -0.19270198 -0.17951417 -0.12362699 0.10531884 -0.060044084 -0.14864269
-0.0529006 -0.42208567 -0.043525044 0.08613499 -0.19094078 -0.032819398 0.5311879 -0.16593824
-0.1759538 -0.20531851 -0.088287994 -0.17033441 0.44454548 -0.11618469 -0.21384433 0.026796242
0.01318198 -0.34473884 -0.03195471 -0.2991126 0.05181445 -0.084573574 0.26591995 0.11849063

linear2.weight f4 [3, 256]
00000000: e6ee 9f3d 206a 8b3e a2ef 94bd b414 023e
00000010: 579f dbbc 39a4 d0be 537d d93d 4da8 3ebf
00000020: 58d7 aabd 5f98 d03d b580 f93d d6f5 953e
00000030: 628f 593e 3aca 2b3d ed2e e43e 3c70 b8bd
00000040: 7791 15be 5f2d 96be ba93 dd3e e621 92bd
00000050: b2c4 57be 24dc e03d 2463 223e 38b3 903e
00000060: 98d6 b6bc 4573 f03e 0273 4a3d abd2 ab3d
00000070: 7135 1b39 7a55 ebbc 519d afbe ea03 c5be
00000080: c085 4f3c 8a21 f8bc f435 903d 83c1 a73d
00000090: 6e18 07bc 6a1a 3bbe ea42 15bd 17fe 99bd
000000a0: 25ae 04bd a5b2 b4be b523 57bd 13ed ad3d
000000b0: 74fc 863d 6966 ad3c 87b8 7fbe 1bea 283e
000000c0: 3606 863e f6c7 78be 07f7 39be dafc 87bd
000000d0: 0b64 98be 6323 5b3e da22 e33c 003c ac3e
000000e0: 1c8d c33c 63a0 a23e 5f77 b03c fc09 c93e
000000f0: cdf8 d6bd 91a9 a93e 1a32 b8bd eb18 2cbd
00000100: 0ea7 debd bfd4 74be d81b 92be d863 d4be
00000110: de16 2f3d 104c ac3d 0782 7b3e c890 d4bc
00000120: fb52 adbe f096 7cbd e1cb c53e 7a5c 933e
00000130: 4a40 b9be 189a 92be a243 01bf 77b0 a1bd
00000140: a732 e83c 0c54 c538 730f 383e 509f fb3b
00000150: 2362 96be dd7e f7bd 9d58 7e3e b459 c83e
00000160: 32e6 6cbd a63f 00be 07d8 1dbe 9910 583d
00000170: 73b6 6eba b6d6 a7bd 2bf6 753d bd49 953b
00000180: 6472 b7bc 6bcc d43c 7986 2a3d d5ae 20bf
00000190: 056a dd3e 836f 72bd 9153 75be e7a3 ef3c
000001a0: a216 153c 8096 643d 2153 c23e c528 3abd
000001b0: ad73 273e eda3 db3e 4aea 10be 9512 24bd
000001c0: 68db 07be e0e6 6dbe c421 ca3d da68 a1bc
000001d0: 150b 64bd 955c f1be af9f debe 6235 19be
000001e0: 35d8 d8bd 0655 49bc 2850 adbc 2c3e c53c
000001f0: edad 463e 78c8 22be 54ba 51be 1aa1 28bd
00000200: c5f6 54bd 6f7b 94be 3b90 733d b5b9 0bbd
00000210: c2a2 8b3e d269 d33c 95ce a2be f7a0 9dbd
00000220: 7f9c d8be 2ffd 483e 3477 483e ff6c e93d
00000230: 64cd c63c 46d2 303e ba00 6fbd cd5e 09bf
00000240: 45c3 92be 01b9 d03d 651a 77be d108 033e
00000250: ff02 103d 056e cd3e e8dd 443e d1a5 073e
00000260: 8f42 1b3e f437 4f3c 41fb 013e 59c1 32be
00000270: 38a8 cebe c02a 26bb 6088 113c af77 47be
00000280: ffed b03e dfdb f5bd a91b 4c3e 7409 30bd
00000290: e530 1f3e b238 1fbe c525 adbe ec87 e5be
000002a0: c925 d6bb 5def 133e d6b4 2dbe 739b 07be
000002b0: d99f cfbd 82c9 5e3c 7a50 4e3a 309f 703e
000002c0: d040 d3bd fbe4 633e 3825 183e 46fe 90bd
000002d0: cd1d 823d 60cd 96be a6e7 c2bd 2cd4 a5bd
000002e0: d1b0 97bd c91a 8fbe 88fd 843e 4c81 ab3e
000002f0: a177 cfbe 2219 b7ba da1a ebbd 54f8 dc3e
00000300: 5dcd 743c 5417 c0be d987 f3bc 709e 95bd
00000310: 5670 e73e 2c07 bf3e 4509 91be a74c 92be
00000320: 6c36 f13d c251 a73e 0572 3fbf b9b4 09be
00000330: 7fbd dc3e 8b10 1b3c 84d5 c73c 76a1 f2bd
00000340: d8e3 d53a 7501 9cbe 5173 f1bc b10b 7b3e
00000350: 8ddc a93e 6516 debd ce19 eeb8 5790 76bd
00000360: 4752 7abd 23ff c03e 1c49 083d 0dac 06bc
00000370: 7408 0a3f b281 17bd dbee f93d a945 21be
00000380: 3c4e 07be 8276 07be 12de b53e 5b61 04bf
00000390: d880 8dbe d760 2c3e e85d daba b37c c3be
000003a0: 587a a1bc 8119 84bc d8cf 9ebe f1b4 2b3e
000003b0: a53f 84bd fa3c 7e3d ce43 773e b48e 89be
000003c0: 5464 13bf f13c 46be 3c2e 00bb 7d38 49be
000003d0: 0776 933e 06b1 7dbe 3a30 00bf cdfb f7bd
000003e0: cd1a f9bd 6d87 a7ba 9645 3f3e e483 c63c
000003f0: f33b c1bd 20e0 24be a282 3a3e ab89 69bd
0.07809238 0.27229404 -0.07272269 0.1270321 -0.026809378 -0.40750292 0.10619607 -0.74475557
-0.08341855 0.101853125 0.12182752 0.2928912 0.21246102 0.041940905 0.44567052 -0.09005782
-0.14606272 -0.2933149 0.4327677 -0.07135372 -0.21071127 0.109794885 0.15858132 0.28261733
-0.022319123 0.46962944 0.049426086 0.08389791 0.0001480186 -0.028727282 -0.3429971 -0.3847955
0.012666166 -0.03028943 0.07041541 0.08191206 -0.008245571 -0.18271795 -0.036440767 -0.07519167
-0.03239264 -0.35292545 -0.052524287 0.08492484 0.0659112 0.021166997 -0.24972735 0.16495554
0.26176614 -0.24295029 -0.1816064 -0.066400245 -0.29763827 0.21400218 0.02772658 0.33639526
0.023870997 0.3176299 0.021541296 0.3926543 -0.10496674 0.3313718 -0.08993931 -0.04201595
-0.10871707 -0.23909281 -0.28536868 -0.41482425 0.042746417 0.08412945 0.2456132 -0.025947943
-0.33852372 -0.061667383 0.3863211 0.28781492 -0.3618186 -0.2863319 -0.50493824 -0.07894986
0.028344465 9.409347e-05 0.17974643 0.0076789036 -0.29371747 -0.12084744 0.24838491 0.39130938
-0.05783672 -0.1252428 -0.15414439 0.052750204 -0.00091061665 -0.0819525 0.060049217 0.0045559094
-0.022393413 0.02597638 0.04163215 -0.6276677 0.4324495 -0.059188377 -0.2395766 0.02925296
0.009099634 0.05580759 0.37954047 -0.045449037 0.1635272 0.42898503 -0.14151874 -0.040056784
-0.1326729 -0.23232603 0.098697215 -0.019703317 -0.05567463 -0.47140947 -0.43481204 -0.1496177
-0.10588113 -0.012288338 -0.021156386 0.024077497 0.19402285 -0.15896785 -0.20481235 -0.041169263
-0.05199315 -0.29000422 0.05946372 -0.03411265 0.27272612 0.025807295 -0.31798235 -0.07696717
-0.42306897 0.19627832 0.19576722 0.113977425 0.02426786 0.17267713 -0.058350302 -0.5366028
-0.28664604 0.10191537 -0.24131162 0.12796332 0.035159107 0.40123 0.19225276 0.13246848
0.15162109 0.012647618 0.12693502 -0.17456569 -0.40362716 -0.002535507 0.008882612 -0.1947925
0.34556577 -0.12004828 0.19932427 -0.042977765 0.15545996 -0.15548971 -0.33817878 -0.44830263
-0.006535266 0.14446779 -0.16963515 -0.13242893 -0.101379104 0.013597848 0.00078702683 0.23498225
-0.103150964 0.22255318 0.14857948 -0.07079749 0.0635334 -0.29453564 -0.0951684 -0.08097109
-0.07406772 -0.27950123 0.2597468 0.33497083 -0.40520957 -0.0013969282 -0.11479731 0.4315821
0.014941541 -0.37517798 -0.029727863 -0.0730561 0.45202893 0.3731016 -0.28327385 -0.28574106
0.11777958 0.32679564 -0.74783355 -0.13447846 0.43113324 0.009464393 0.024393804 -0.118472025
0.0016318513 -0.30469862 -0.029473932 0.24516179 0.3317608 -0.10844115 -0.00011353531 -0.060196247
-0.061113622 0.37694654 0.033272848 -0.008219731 0.5391915 -0.03698892 0.12203761 -0.1574923
-0.13213438 -0.13228801 0.3552099 -0.5171105 -0.27637362 0.16833816 -0.0016660066 -0.38181075
-0.019711658 -0.016125442 -0.31017947 0.16768242 -0.06457452 0.06206987 0.24146959 -0.26866686
-0.57574964 -0.19359185 -0.0019558808 -0.19650455 0.28800985 -0.2477456 -0.5007359 -0.12108574
-0.12163315 -0.0012781449 0.18678889 0.024232812 -0.094352625 -0.16101122 0.18213895 -0.057016056

linear2.bias f4 [3]
00000000: 1717 623e d44a 27bd d69e eabd
0.2207912 -0.040842846 -0.11456077
