trained_models/dql_snake_model.pth (torch, 17488 bytes, 4 tensors)

linear1.weight f4 [256, 11]
0	0x3f1dd0ac	0.61646533
1	0xbe0238dd	-0.12717004
2	0x3f34d0fb	0.7063138
3	0xbefef54b	-0.4979652
4	0xbd549a25	-0.051904816
5	0xbe84ade5	-0.2591392
6	0x3cf992b6	0.030465465
7	0x3f2ffced	0.6874531
8	0x3ebe59bd	0.3717784
9	0x3f0b33cf	0.5437593
10	0x3e869416	0.26284856
11	0xbee3b7be	-0.44476122
12	0xbdd2ea81	-0.10298634
13	0xbd4f9b59	-0.05068526
14	0x3e52dd69	0.20592274
15	0xbea0f060	-0.31433392
16	0xbef062de	-0.4695043
17	0xbf08815c	-0.53322387
18	0xbf01cd40	-0.5070381
19	0xbf05ef3e	-0.5231818
20	0xbefa63e6	-0.4890434
21	0xbd8dd971	-0.06926239
22	0x3d0a9d27	0.03384128
23	0xbdfc278f	-0.12312233
24	0xbf5691a4	-0.8381598
25	0x3eaa4395	0.33254686
26	0xbed735f7	-0.4203336
27	0x3d2f9dde	0.042875163
28	0xbdc7651a	-0.097360805
29	0xbe5cec62	-0.21574548
30	0x3eb9db56	0.36300153
31	0xbf10b10d	-0.5652016
32	0xbf078379	-0.52934986
33	0x3f0dde27	0.554171
34	0x3f21e452	0.63239014
35	0x3f1547a1	0.5831242
36	0xbe8b6efd	-0.27233115
37	0x3e8afe04	0.27146924
38	0xbeb80879	-0.35943964
39	0xbe2c4edb	-0.16826956
40	0x3ef4f28b	0.47841296
41	0xbe3d831e	-0.18507048
42	0x3d0b4331	0.033999626
43	0x3d45f414	0.048328474
44	0x3e1591b5	0.14606364
45	0xbeb465ed	-0.35234013
46	0xbebe89b6	-0.3721444
47	0x3de93234	0.113865286
48	0xbe8390bc	-0.2569636
49	0x3dfa2947	0.12214904
50	0x3d847553	0.0646769
51	0xbe6c1151	-0.2305348
52	0xbe8ce4f5	-0.2751843
53	0xbed588b5	-0.41705862
54	0xbe0903b2	-0.13380316
55	0xbe94f76c	-0.29095018
56	0x3d22079d	0.03955804
57	0xbe0a2835	-0.134919
58	0xbe11098d	-0.141638
59	0xbe82c2e4	-0.25539315
60	0xbd030b26	-0.031993054
61	0xbecd423c	-0.40089595
62	0xbcdc8b0d	-0.026921773
63	0x3e351bc2	0.1768637
64	0x3d73bfd5	0.059509117
65	0x3b9e385e	0.004828497
66	0x3d712033	0.0588686
67	0xbe3007dc	-0.17190498
68	0xbdc34d84	-0.09536269
69	0x3d246223	0.040132653
70	0xbe99d82a	-0.30047733
71	0x3e2bc78d	0.16775341
72	0xbe2cc790	-0.16873002
73	0xbcb05dfd	-0.021529192
74	0xbe95110d	-0.2911457
75	0x3d96d479	0.07364745
76	0xbce7e97b	-0.028309574
77	0x3ea3b809	0.31976345
78	0x3f1ecf62	0.6203519
79	0xbf390eb7	-0.7228808
80	0xbe988f53	-0.29796848
81	0xbdceb819	-0.100937076
82	0xbecd9daf	-0.40159366
83	0x3e89b1d3	0.26893482
84	0x3cf428a5	0.029804537
85	0x3e96c9ce	0.2945084
86	0x3e144740	0.14480305
87	0xbe38239f	-0.17982338
88	0xbde3ca5a	-0.1112258
89	0x3c70e2a4	0.014702473
90	0xbd3534a7	-0.044239666
91	0xbea8734c	-0.32900465
92	0xbe8f62c8	-0.28005052
93	0xbe3afa64	-0.18259579
94	0xbe131790	-0.14364457
95	0x3e362920	0.17789125
96	0xbc42ec31	-0.011897133
97	0xbe20d5c5	-0.15706547
98	0x3e7e09ea	0.2480847
99	0xbe809b93	-0.25118694
100	0x3e5a1a3e	0.21299073
101	0xbde6d927	-0.11271887
102	0x3e83eade	0.25765127
103	0x3e8f9abe	0.28047746
104	0xbec1feae	-0.37889618
105	0xbcb7221f	-0.022355137
106	0xbed69ea5	-0.4191791
107	0xbf3d6d96	-0.7399534
108	0x3e8523ba	0.2600382
109	0xbc86938c	-0.016427778
110	0x3e64ce3e	0.223443
111	0x3e127b96	0.14304957
112	0xbe015481	-0.12629892
113	0xbdedb6b4	-0.116071135
114	0xbe6d55e2	-0.23177293
115	0xbe8d91d8	-0.27650332
116	0x3d9fc96f	0.07802092
117	0x3efd771a	0.4950493
118	0x3f1dec5d	0.61688787
119	0x3f1b7f31	0.60740954
120	0x3eafa96f	0.34308955
121	0x3e132aec	0.14371842
122	0xbe118a5c	-0.14212936
123	0x3d934c40	0.07192278
124	0xbed892a6	-0.42299384
125	0xbe86b379	-0.26308802
126	0xbe493cf2	-0.19652155
127	0xbe53983e	-0.20663545
128	0x3e817085	0.25281158
129	0x3e8657eb	0.2623895
130	0x3df17de4	0.1179159
131	0x3df1006d	0.11767659
132	0x3c973951	0.018459948
133	0xbebb9d17	-0.36643288
134	0x3d9b9506	0.07596783
135	0xbd51a0e7	-0.05117884
136	0xbd4f241c	-0.050571546
137	0x3c951651	0.018199118
138	0xbdc081ab	-0.09399732
139	0xbe5bc0f5	-0.21460326
140	0xbd51020b	-0.05102734
141	0xbe47ddcd	-0.19518204
142	0xbdb3424b	-0.08752879
143	0x3e628ca9	0.2212397
144	0xbf1128a1	-0.5670262
145	0x3f215d83	0.6303331
146	0x3e20c07f	0.15698431
147	0x3da3b302	0.079931274
148	0x3d7413ef	0.059589323
149	0xbe6b54f9	-0.22981633
150	0xbed431cd	-0.41444245
151	0xbca05f3e	-0.019576665
152	0x3d44aa2d	0.048013855
153	0x3ece5d63	0.40305623
154	0xbeb6817b	-0.3564566
155	0xbdd36ca7	-0.10323458
156	0xbe681ba4	-0.22666794
157	0xbca385a9	-0.019961195
158	0xbe82fa7e	-0.25581735
159	0xbdd51c13	-0.10405745
160	0xbe1a4dea	-0.15068784
161	0xbcc65189	-0.0242088
162	0x3e97c1c5	0.29640022
163	0x3d4ec1f3	0.050477933
164	0xbc766f26	-0.015041148
165	0x3d065a3a	0.03280089
166	0xbf105c47	-0.56390804
167	0x3dd75a33	0.10515251
168	0xbdce0172	-0.100588694
169	0xbed50766	-0.41607207
170	0x3d3eea4b	0.046610158
171	0xbeea0e28	-0.45713925
172	0x3dce7c15	0.100822605
173	0x3e85b25f	0.2611265
174	0xbeff7d30	-0.49900198
175	0xbe07a5e5	-0.13246877
176	0x3c8b75db	0.017023971
177	0xbbb8fbf0	-0.0056452677
178	0xbe5a3561	-0.21309425
179	0xbe056e58	-0.13030374
180	0xbe909424	-0.28238022
181	0xbee79a64	-0.45234978
182	0xbda9fd54	-0.08300272
183	0xbc92b454	-0.017908253
184	0x3da8de10	0.0824548
185	0x3e367202	0.17816928
186	0x3be5be5e	0.007011219
187	0xbe74376c	-0.23849267
188	0x3e547901	0.20749284
189	0xbe6ccfdd	-0.23126169
190	0xbeaefe81	-0.34178546
191	0xbe240415	-0.16017182
192	0xbe145cbc	-0.144885
193	0xbeaf99b5	-0.34296957
194	0x3c8a7684	0.016902216
195	0xbe3c1312	-0.1836665
196	0xbc8253a7	-0.01590903
197	0xbe0548e2	-0.13016084
198	0xbd3f8f54	-0.046767548
199	0x3f54312a	0.8288752
200	0xbf63e7ff	-0.8902587
201	0x3ebf80a7	0.3740284
202	0xbc0d19d6	-0.008612117
203	0xbe16c6c9	-0.14724268
204	0x3de377c2	0.11106826
205	0xbe8353dc	-0.25649917
206	0xbec36c51	-0.38168576
207	0xbe763d51	-0.24046828
208	0xbd3af436	-0.045643054
209	0x3e3f4a35	0.18680651
210	0xbe5334f7	-0.20625673
211	0xbe0623b9	-0.13099565
212	0xbe4ada6e	-0.19809887
213	0xbe969df1	-0.29417375
214	0xbcac0bd0	-0.021001726
215	0xbe29f7ca	-0.1659843
216	0x3d74257f	0.05960607
217	0xbe0f016f	-0.1396539
218	0xbe608680	-0.21926308
219	0xbe8c70b0	-0.27429724
220	0x3ec4124f	0.38295218
221	0x3eeaebb4	0.45882952
222	0xbec06c14	-0.37582457
223	0xbf017669	-0.50571305
224	0x3cb57404	0.022150047
225	0xbe9d4ca5	-0.30722538
226	0xbe901ae2	-0.2814551
227	0x3dc638c5	0.09678797
228	0xbec9db0f	-0.3942494
229	0xbd8356dc	-0.064130515
230	0xbe35b6be	-0.17745492
231	0xbdcc2a34	-0.09968987
232	0x3dac29df	0.08406424
233	0x3d499d4e	0.049222283
234	0xbe4611c6	-0.19342718
235	0x3d903c61	0.07042766
236	0x3d9ac47e	0.07557009
237	0xbe9295d7	-0.28629944
238	0xbe05e2dd	-0.13074823
239	0xbe9f3033	-0.3109146
240	0x3cf80d15	0.030279675
241	0xbe2135f7	-0.15743242
242	0x3e9b6838	0.3035295
243	0xbf252a99	-0.64518124
244	0xbdee0d41	-0.11623622
245	0xbf5eb398	-0.8699279
246	0x3eb3b1a9	0.3509648
247	0xbe19fb2b	-0.15037219
248	0xbedfad81	-0.4368706
249	0xbe344540	-0.17604542
250	0x3f02e260	0.5112667
251	0xbf34ab0e	-0.7057351
252	0xbf332e9a	-0.69992983
253	0x3e40f00f	0.18841575
254	0x3e881850	0.2658105
255	0x3eaeff4e	0.34179157

linear1.bias f4 [256]
0	0xbeba1733	-0.36345825
1	0x3e847613	0.25871333
2	0xbe90fe57	-0.28319046
3	0xbea9c690	-0.33159304
4	0xbe4f6f79	-0.20257367
5	0xbed903a8	-0.42385602
6	0xbea339f1	-0.31880143
7	0xbecc08d0	-0.39850473
8	0xbe9c2e68	-0.30504155
9	0xbdda26da	-0.106519416
10	0xbed84848	-0.42242646
11	0xbeccb11f	-0.39978883
12	0xbd8b14ce	-0.067910776
13	0xbe89198d	-0.26777306
14	0xbeb88f7d	-0.36046973
15	0xbe90d4b0	-0.28287268
16	0xbe563a69	-0.20920719
17	0xbe57b930	-0.21066737
18	0x3e4ba7cc	0.19888228
19	0xbe91ecc2	-0.28500944
20	0xbde40897	-0.11134451
21	0xbe994d45	-0.29941764
22	0xbc9281bb	-0.017884126
23	0xbf3ffca3	-0.7499487
24	0x3e0bb654	0.13643771
25	0xbe5fb6b1	-0.21847035
26	0xbed4395d	-0.41450015
27	0xbeb8ab0a	-0.36067992
28	0x3ee12398	0.43972468
29	0xbeead387	-0.45864508
30	0xbe82febb	-0.2558497
31	0xbe69c59e	-0.22829291
32	0xbf075f11	-0.52879435
33	0xbe71cc23	-0.23613028
34	0xbe9b2dbf	-0.3030834
35	0xbea3d69a	-0.31999665
36	0xbd906cad	-0.07051978
37	0xbecbf668	-0.3983643
38	0xbc186bfb	-0.009303088
39	0xbf00fe97	-0.50388473
40	0xbf2b62d2	-0.6694766
41	0xbe3eaadf	-0.1861987
42	0xbecd66cb	-0.40117487
43	0x3f1d5bfa	0.6146847
44	0xbe91cc7c	-0.28476322
45	0xbe750d0d	-0.2393076
46	0xbecb7725	-0.39739338
47	0x3ec55d64	0.38547814
48	0xbe493938	-0.19650733
49	0xbdec0e2a	-0.11526139
50	0xbdb4748e	-0.088112935
51	0xbf0d0d34	-0.5509827
52	0xbe4d7139	-0.20062722
53	0xbe9f7045	-0.31140342
54	0x3e311b72	0.17295626
55	0xbef6e3e5	-0.48220745
56	0x3de0501d	0.109527804
57	0xbe1bba68	-0.15207827
58	0xbd89a7c5	-0.067214526
59	0x3e883bde	0.26608175
60	0xbe702d33	-0.23454742
61	0xbeb11bcd	-0.34591523
62	0xbd86fb51	-0.065909036
63	0x3e5692ee	0.20954487
64	0xbef3e824	-0.47638047
65	0xbe1d635d	-0.15369935
66	0xbe4cfdd6	-0.20018706
67	0xbeaee08f	-0.341557
68	0x3cb13eed	0.02163645
69	0x3e1a5857	0.15072761
70	0xbe079231	-0.13239361
71	0xbe93c062	-0.28857714
72	0xbe3e4666	-0.18581542
73	0xbdbede5d	-0.09319756
74	0x3e98d9cb	0.29853663
75	0xbda57ae5	-0.08080081
76	0x3e380238	0.17969596
77	0xbe81f038	-0.25378585
78	0xbc051e18	-0.008124851
79	0xbe25067b	-0.16115753
80	0x3e032489	0.12806906
81	0x3db02f0d	0.08602724
82	0xbd3a9430	-0.04555148
83	0xbec5a2c6	-0.3860075
84	0xbe72ec90	-0.23723054
85	0x3e0fe9a3	0.14053969
86	0xbea298a3	-0.31757078
87	0xbe437d13	-0.19090681
88	0x3d324f99	0.04353294
89	0xbebdcc0d	-0.3706974
90	0x3f200409	0.6250616
91	0xbdae9ef8	-0.08526415
92	0x3e786852	0.24258545
93	0xbe9494ae	-0.29019684
94	0xbebeee59	-0.3729122
95	0xbc7db3b5	-0.01548474
96	0xbebdd581	-0.37076953
97	0xbe699408	-0.22810376
98	0xbf01ecda	-0.5075203
99	0xbe5e2eec	-0.21697587
100	0x3e86ae60	0.26304913
101	0x3c786b4d	0.015162301
102	0xbe019aee	-0.12656757
103	0x3e67e6d5	0.22646649
104	0xbed490f1	-0.41516832
105	0xbeaf38ff	-0.34223172
106	0xbf35696f	-0.70864004
107	0xbea72b79	-0.32650355
108	0xbccbb272	-0.024865363
109	0xbecc0e7e	-0.39854807
110	0xbe4a03d2	-0.1972802
111	0x3ec6e10a	0.38843566
112	0xbdd2165d	-0.10258172
113	0xbf399308	-0.72489977
114	0xbdd13b14	-0.102163464
115	0x3e8dfd2f	0.27732226
116	0xbe3f6988	-0.186926
117	0x3f0670e5	0.52516013
118	0xbc63efaa	-0.013912121
119	0x3f70af3c	0.94017386
120	0xbe9e087e	-0.30865854
121	0x3e07a596	0.1324676
122	0xbdbf8577	-0.09351628
123	0xbeb40275	-0.35158125
124	0xbf034fe2	-0.51293766
125	0xbec22f03	-0.37926492
126	0xbe9c2a55	-0.30501047
127	0xbd4df778	-0.050284833
128	0x3ede5dc7	0.4343092
129	0x3e2e80d7	0.17041336
130	0xbda3e7f8	-0.08003229
131	0x3ec194b7	0.37808773
132	0xbe41bfca	-0.18920818
133	0x3dd3a3a9	0.1033395
134	0x3f8b0c62	1.0863154
135	0x3e974119	0.29541853
136	0xbd894bef	-0.06703936
137	0x3edd4361	0.4321547
138	0xbe7104b7	-0.23536955
139	0xbc4c44ab	-0.012467544
140	0x3daafc8e	0.08348952
141	0xbb3ce1d7	-0.0028821134
142	0xbedac627	-0.42729303
143	0x3d3556f6	0.044272386
144	0xbe84fab8	-0.25972533
145	0xbce0eb4a	-0.027455945
146	0xbe2f6487	-0.17128192
147	0xbdcfd8a9	-0.101487465
148	0x3d820f40	0.06350565
149	0xbe6c3a65	-0.23069151
150	0xbe3b7250	-0.18305326
151	0x3df3b5bd	0.11899898
152	0xbd18f596	-0.037343584
153	0xbdf59816	-0.11991899
154	0xbe472591	-0.19447924
155	0xbed552a0	-0.416646
156	0x3e1989e8	0.14994013
157	0x3f060717	0.5235457
158	0xbdf700da	-0.12060709
159	0xbefd2505	-0.49442306
160	0xbe3f8545	-0.18703182
161	0xbf2a45c7	-0.6651272
162	0xbe802274	-0.25026286
163	0xbf05d8f4	-0.5228417
164	0xbeaaddd1	-0.33372357
165	0xbed0d0fa	-0.40784436
166	0x3ef440fb	0.47705826
167	0xbed8d18f	-0.4234738
168	0xbd8797c4	-0.06620744
169	0xbf1738d2	-0.59071076
170	0xbe61e971	-0.22061707
171	0xbef06509	-0.46952084
172	0x3eb876bd	0.3602809
173	0x3db338d2	0.08751072
174	0xbf01e227	-0.50735706
175	0xbe714274	-0.23560506
176	0x3e755256	0.2395719
177	0xbee0a19a	-0.43873292
178	0x3f55d5eb	0.8352954
179	0xbedb221f	-0.4279947
180	0x3ea7d041	0.32776073
181	0xbdcdbf83	-0.100462936
182	0xbedde76b	-0.4334062
183	0x3e9eefa8	0.31042218
184	0xbdd0812d	-0.10180888
185	0x3d63b47a	0.055592038
186	0xbe6faf46	-0.23406705
187	0xbe974c10	-0.2955022
188	0xbebda9d7	-0.3704364
189	0xbafaebd7	-0.0019143772
190	0xbd17dc07	-0.03707507
191	0xbdba9807	-0.09111028
192	0x3e1dbcfb	0.15404122
193	0xbe625d8a	-0.22105995
194	0xbec02bfc	-0.37533557
195	0x3f39955f	0.7249355
196	0xbee384a6	-0.4443714
197	0xbed9a3ba	-0.42507726
198	0xbec19eed	-0.37816563
199	0xbec9b4f4	-0.3939587
200	0xbe2337c7	-0.15939246
201	0xbec793c4	-0.38979924
202	0x3de592fc	0.11209676
203	0xbdcb63b3	-0.099311255
204	0xbdd46a43	-0.1037183
205	0xbe86c253	-0.26320133
206	0xbf1dfc7e	-0.617134
207	0xbe852aa2	-0.2600909
208	0xbe5b6eac	-0.21428937
209	0xbdf41ffd	-0.11920164
210	0xbe92b122	-0.28650767
211	0xbe94eab7	-0.29085323
212	0xbe894778	-0.2681234
213	0xbeb1ef4d	-0.34752885
214	0xbe0669d7	-0.13126312
215	0xbec3617b	-0.3816031
216	0xbe8641c6	-0.26222056
217	0x3d9bb04a	0.07601984
218	0xbe1b2c91	-0.1515372
219	0x3eac8831	0.33697656
220	0xbe273b3b	-0.16331188
221	0x3ee40d6c	0.4454149
222	0xbedcc934	-0.43122256
223	0xbf04070a	-0.5157324
224	0xbd262823	-0.04056562
225	0xbe8774f8	-0.26456428
226	0xbe8efaf4	-0.27925837
227	0xbeefbe42	-0.46824843
228	0x3ebc6fbf	0.36804006
229	0xbe706c86	-0.23478898
230	0x3f2e3da9	0.68062836
231	0xbee424a6	-0.4455921
232	0xbd87c11f	-0.06628632
233	0x3ec7de9c	0.39037025
234	0xbdd62ec4	-0.104581386
235	0x3f1a1326	0.6018547
236	0xbebc7e09	-0.36814907
237	0xbeb4364c	-0.35197675
238	0xbe9385b5	-0.28812948
239	0xbe58f970	-0.21188903
240	0xbda4ca7e	-0.08046435
241	0xbe27d8bf	-0.16391276
242	0xbed947f8	-0.4243772
243	0x3dffb772	0.12486161
244	0xbf129cc6	-0.5727047
245	0xbe96eac5	-0.2947599
246	0xbf077699	-0.5291534
247	0x3d930588	0.071787894
248	0xbcaf45e3	-0.02139563
249	0x3dbdb77c	0.092635125
250	0xbdd6f653	-0.10496201
251	0xbd7f00fe	-0.062256806
252	0xbdb3744b	-0.087624155
253	0xbeb0a7bd	-0.34502974
254	0x3e983f8a	0.29735976
255	0x3ed25888	0.4108317

linear2.weight f4 [3, 256]
0	0xbe6265a9	-0.22109093
1	0xbda3f710	-0.08006108
2	0xbef42902	-0.47687536
3	0xbc8ce626	-0.017199587
4	0xbdaa7ae8	-0.08324224
5	0xbd85f174	-0.06540194
6	0xbcf03f40	-0.029327035
7	0x3e1fc186	0.15601167
8	0xbad8f381	-0.0016552062
9	0xbe184455	-0.14869817
10	0xbe1cec20	-0.1532445
11	0x3cb2f813	0.021846807
12	0x3b56c19e	0.0032769213
13	0xbd5dfb94	-0.054195
14	0xbc49a6cb	-0.012307833
15	0xbdf7bcdf	-0.12096571
16	0xbc84ebcf	-0.016225724
17	0x3cb324d0	0.02186814
18	0x3dd493f3	0.103797816
19	0x3a4d9f80	0.0007843897
20	0x3d3c9ff7	0.046050992
21	0x3b26b291	0.0025436024
22	0x3e268d27	0.16264783
23	0xbd213b6f	-0.03936332
24	0x3ef7368a	0.48283798
25	0xbe580877	-0.21096979
26	0xbd1cbe68	-0.038267523
27	0x3c6ffa0e	0.01464702
28	0x3f17fbe0	0.59368706
29	0xbe380e63	-0.17974238
30	0xbb8c61e8	-0.0042841323
31	0xbcc879e3	-0.024472183
32	0x3d7132cd	0.058886338
33	0xbea0ac09	-0.31381252
34	0xbcbf0ceb	-0.02332159
35	0x3cdd888f	0.027042655
36	0xbeade67a	-0.33964902
37	0xbe90f7f3	-0.2831417
38	0x3edb24dc	0.4280156
39	0xbb60a175	-0.0034275923
40	0xbeec7ba8	-0.46188092
41	0xbe1d34a1	-0.15352108
42	0xbe26908e	-0.1626608
43	0x3dc68bb9	0.09694619
44	0xbd08c6dc	-0.033392772
45	0x3e460a59	0.19339885
46	0x3c0ef85c	0.008726206
47	0x3e405c61	0.1878524
48	0xbe3b4d05	-0.182911
49	0xbe2787d8	-0.16360414
50	0xbe7c4be6	-0.24638328
51	0xbdbd9c43	-0.0925832
52	0xbe6653a9	-0.22492851
53	0xbf0fb6e7	-0.5613846
54	0x3e25c744	0.16189295
55	0xbdbb6330	-0.09149778
56	0x3bbaf877	0.005705889
57	0xbf371c9f	-0.7152805
58	0xbc3ef767	-0.011655665
59	0x3f1a2f6f	0.6022863
60	0xbe646c27	-0.22306882
61	0xbc9f978a	-0.01948144
62	0x3ec36daf	0.3816962
63	0x3eae4233	0.3403488
64	0xbd95f7e0	-0.07322669
65	0xbc66fed2	-0.01409884
66	0xbe3d56ee	-0.18490192
67	0xbc72b57b	-0.014813776
68	0x3f42c761	0.7608548
69	0xbc8fe5bb	-0.017565599
70	0xbe742c7b	-0.23845093
71	0x3c923e4e	0.017851975
72	0xbe12bce7	-0.14329873
73	0xbe0ecd1b	-0.13945429
74	0x3f18b27c	0.59647346
75	0xbe74b959	-0.2389883
76	0xbe63adf3	-0.22234325
77	0xbd322187	-0.043489005
78	0x3ca3b16e	0.019982066
79	0x3c81de10	0.015852958
80	0xbe389e75	-0.18029197
81	0xbd81cfb1	-0.06338442
82	0xbe0ad7ea	-0.13558927
83	0xbd8263e2	-0.063667074
84	0xbe51884e	-0.20462152
85	0xbea1c057	-0.31592056
86	0xbe54b408	-0.20771801
87	0xbe00200d	-0.12512226
88	0xbe7f493d	-0.24930282
89	0x3ca6cd4b	0.020361563
90	0x3f0fc144	0.56154275
91	0x3c74f0c9	0.014949986
92	0x3eba4552	0.36381012
93	0xbb642bdf	-0.0034816188
94	0x3e0bae1e	0.13640639
95	0x3e92c1e5	0.28663555
96	0xbdbfebe4	-0.093711644
97	0xbba48d55	-0.005021731
98	0xbd5c5dda	-0.05380044
99	0xbe9d2648	-0.3069327
100	0x3eb0906d	0.34485188
101	0xbc9d9ce4	-0.01923985
102	0xbed198cb	-0.40936884
103	0x3f0acaa0	0.5421543
104	0x3b5eb73b	0.0033983726
105	0x3ce2d53a	0.027689565
106	0xbe7b02f3	-0.24512844
107	0xbc3aae64	-0.011394117
108	0x3c06c4f3	0.008225667
109	0x3cb9d8dd	0.022686416
110	0xbe097771	-0.1342447
111	0x3e13983b	0.1441354
112	0xbb6a904f	-0.003579158
113	0x3c8ef48f	0.017450599
114	0x3c9582be	0.01825082
115	0x3e555209	0.20832075
116	0xbd518876	-0.05115553
117	0x3f23ffb4	0.64062047
118	0xbe3b2806	-0.18276986
119	0x3f00597a	0.5013653
120	0xbd49c979	-0.049264405
121	0x3f0cb2e7	0.54960483
122	0xbe7c71c5	-0.24652775
123	0xbe8e6bc5	-0.27816597
124	0x3c3231ca	0.010876128
125	0x3bf1efdb	0.0073833293
126	0xbc8c1b80	-0.017102957
127	0x3df7cb31	0.120993026
128	0x3ed707f9	0.4199827
129	0x3ea855bd	0.32877913
130	0x3c1d385b	0.009595956
131	0x3e60111e	0.2188153
132	0xbe8cef60	-0.2752638
133	0xbe320c76	-0.17387566
134	0x3f071d50	0.527791
135	0x3c867e29	0.01641758
136	0xbdd105c7	-0.1020618
137	0x3dfaac0c	0.122398466
138	0xbe331808	-0.17489636
139	0x3dd5cd99	0.10439605
140	0xbe1edf83	-0.1551495
141	0xbd687308	-0.056750327
142	0xbee44410	-0.44583178
143	0xbd73c2b9	-0.059511874
144	0xbcefe4e8	-0.029283956
145	0xbd1100e3	-0.035401236
146	0xbc1b7086	-0.009487277
147	0x3c3bd54a	0.011464426
148	0x3e8729f4	0.26399195
149	0xbe01e124	-0.1268354
150	0xbd6dfa0b	-0.058099788
151	0xbd6d908f	-0.05799919
152	0xbf016206	-0.50540197
153	0xbd87cf4e	-0.06631337
154	0xbe134c7b	-0.14384644
155	0xbe478dea	-0.1948773
156	0x3d3d192d	0.046166588
157	0x3e896ac4	0.26839268
158	0x3e394d77	0.18095957
159	0xbd705434	-0.058674052
160	0x3d3c96b1	0.046042148
161	0x3d081670	0.033224523
162	0x3bc975e0	0.006148085
163	0xbce9568b	-0.02848365
164	0x3c81963e	0.015818711
165	0x3c3d0aba	0.011538202
166	0x3ed29b51	0.41134122
167	0xbcdda2d6	-0.027055185
168	0xbe23f06d	-0.16009684
169	0x3dee043a	0.116219
170	0x3e3865e2	0.18007615
171	0xbf1519c6	-0.5824245
172	0x3d84cb54	0.06484094
173	0x3ecadc6d	0.39621297
174	0xbda27e62	-0.07934262
175	0x3bfa0cc0	0.0076309144
176	0x3ede3850	0.43402338
177	0xbe4ab727	-0.1979643
178	0x3ed87de9	0.42283562
179	0x3c465fed	0.012107831
180	0x3e5a3e1d	0.21312757
181	0xbbf38f7d	-0.0074328766
182	0xbe4c02e6	-0.1992298
183	0x3e617dad	0.22020598
184	0x3c74397e	0.014906285
185	0xbe356a77	-0.17716394
186	0xbd9388d3	-0.072038315
187	0xbeac2b9d	-0.33627024
188	0x3d70daeb	0.058802526
189	0xbea7b4da	-0.32755166
190	0x3db8bd23	0.0902045
191	0xbd7eb980	-0.062188625
192	0x3ebe27ca	0.37139732
193	0xbc8e0677	-0.017337067
194	0x3d2b5eed	0.041838575
195	0x3eef4d74	0.4673878
196	0xbd860c5e	-0.065453276
197	0xbe94c8fe	-0.29059595
198	0x3ca7be2b	0.020476421
199	0xbd0bf97b	-0.03417347
200	0xbca7fb10	-0.020505458
201	0xbe5a6d4b	-0.21330754
202	0x3e165c3b	0.1468362
203	0x3d8aa732	0.06770171
204	0x3d91f434	0.07126656
205	0xbea52b3b	-0.32259545
206	0xbe6a22c8	-0.2286483
207	0xbc8c4aaf	-0.017125456
208	0xbda4cfce	-0.08047448
209	0x3c9051e3	0.017617172
210	0xbeaecfca	-0.34142905
211	0x3bc7441c	0.0060811173
212	0xbde7a350	-0.11310446
213	0xbdce8240	-0.10083437
214	0x3c0c6d83	0.0085710315
215	0xbdef1195	-0.116732754
216	0xbcff3a16	-0.031155627
217	0x3e8b6164	0.2722274
218	0xbe061396	-0.13093409
219	0x3d2d26cd	0.04227333
220	0xbca4885a	-0.020084549
221	0x3e133c48	0.14378464
222	0xbde5f25e	-0.112278685
223	0xba7c5d72	-0.00096269615
224	0xbe808767	-0.25103304
225	0xbd56b8f1	-0.052422468
226	0x3bf5a076	0.007495935
227	0xbc0ab933	-0.0084670065
228	0x3e756e0b	0.2396776
229	0xbc0c85e7	-0.008576847
230	0x3e8c68ec	0.274238
231	0xbcb706b8	-0.022342071
232	0xbe8a31d5	-0.26991144
233	0x3e25cca7	0.1619135
234	0x3d072987	0.032998588
235	0x3eaed2cf	0.3414521
236	0xbb194f11	-0.0023393075
237	0xbce402ec	-0.027833425
238	0xbcbdd7fa	-0.023174275
239	0x3cc24faa	0.023719627
240	0xbe6fedd7	-0.23430572
241	0xbdffbd26	-0.12487249
242	0xbce12529	-0.02748354
243	0x3e50fd5f	0.20409153
244	0x3cf81c0c	0.030286811
245	0x3cae9b54	0.0213143
246	0x3c76f12c	0.015072148
247	0x3f37a574	0.71736836
248	0xbea217ca	-0.31658775
249	0x3d7bf86b	0.061516207
250	0xbdb14799	-0.08656234
251	0xbf19c0df	-0.6005992
252	0xbda85d22	-0.08220889
253	0x3962cd9a	0.00021629632
254	0x3dde4297	0.10852545
255	0x3e031be0	0.12803602

linear2.bias f4 [3]
0	0x3f0838cd	0.5321167
1	0xbdbc4ee7	-0.09194737
2	0xbdfd3b3a	-0.12364812
