trained_models/dql_snake_model.pth (torch, 17488 bytes, 4 tensors)

linear1.weight f4 [256, 11]
00000000: d03f 123e 90ac 2e3e 6d8b 29be 68a5 afbe
00000010: 61ad adbd 57e0 663e a871 5fbd b423 493e
00000020: bb5a 253e 6dd5 6dbe e1c3 4fbd a4a1 a73e
00000030: b8b2 dd3d c15b 0bbe e393 613e a283 3dbe
00000040: 3faa 86be 8482 013d 4ed4 013e 18ec bbbd
00000050: e0b4 543e e6df 47be 6b0b acbe 3cb7 bb3e
00000060: 9dbf 5bbd f8fd 3a3e 871a aabd 9cec d8bd
00000070: dc64 77bc b7d4 513e 680a 6b3e b70d 7bbe
00000080: 12f4 90bc 4c05 233e da1d d93e 0682 c1be
00000090: c025 cdbd ebbd 403e 53e7 ab3d 6a0c 193e
000000a0: 8a1f 533e a1ac 00bc a2b4 513d 0309 58bd
000000b0: ddff c83e fe3f f33e 9268 d03e 98dc 9b3e
000000c0: 61a5 b9bb 19f4 893e 2cfb 3f3e 98c8 a6bd
000000d0: 9ce5 063e a1a3 20be 9324 83be 8cea 963e
000000e0: 68a6 7ebc c5ac cfbe 4a7a 3d3d a380 c73d
000000f0: 0bdb 543c 9326 473d 5c50 3a3e 2e00 873e
00000100: dbcf 4bbe 32f1 ffbd 0958 b63e 18c5 debd
00000110: 2c9d 003f 1c49 063e 3076 f6bd 6fb4 fcbd
00000120: 0a30 843a c67b 04be 3d17 13bd 43f1 483e
00000130: 6f40 623e 0e28 ebbd f837 6bbe 1a7b a7bd
00000140: 60d3 763d 9b84 493d 3730 b63d 370c 1f3d
00000150: a7f1 45be 8473 54be 1eef 443e b1e3 2d3e
00000160: 2885 3abe feb0 953e 5c71 32be c1af 373e
00000170: d93c d3bd 1999 87be b243 ccbd 073c 42be
00000180: 6bd2 ddbb aee8 b6bc f7ff c03d a73d b4be
00000190: fee9 ad3e 6c2a 71be 2ba0 19be 01fd 1d3e
000001a0: 3655 80bd a802 ee3d 00f3 13be 63c0 96be
000001b0: 58e2 933e bdf6 05bd 883b 59be 9df3 883d
000001c0: 5a0c 0abe 6907 e63d 3f25 52be 499f 13bd
000001d0: d2e7 be3d 43b0 bf3d c5c9 8dbd ccd3 b0be
000001e0: 99b6 0d3e 6b55 5f3e 2cd3 a53e a325 653e
000001f0: 5d48 b1be ade1 4abe 5677 513e 46ac fc3c
00000200: d555 e0bb 0200 193e 5ba9 5a3e a640 f9bd
00000210: 770a a0be 20c9 c53e 8328 113e 0078 6c3e
00000220: d650 0a3e a76b 233d c4db 1e3e 7418 24bd
00000230: 9bf5 173d 7864 c73c dfdd 25bc 973b 543b
00000240: a840 6bbe 3463 a3bd b1bb 253e de3d 78be
00000250: 076b 963d b607 01bd 479e 95be 9790 183d
00000260: 4ae8 86bd 76ef 85bd 5f8c 77be 3235 83be
00000270: 0c7a 8abd 34e1 70be 347c f8bd e418 ffbd
00000280: 9044 a5bd a0b2 ae3c 366b cbbd 34fa 073e
00000290: a888 41be 62f1 cc3e 6d6b 2e3e 9694 8abe
000002a0: 85b3 5bbe b4fb 4b3e dbfa 43be 1e7a 4fbe
000002b0: 1cb0 94be 20f0 153e e89c 07be 36f9 803e
000002c0: 9c9b 233e f185 dabd 262a f53e c3f2 8b3d
000002d0: 9a05 a6bc 4082 0dbe 26ce 80be 0c6e edbd
000002e0: b735 373e 92b3 983e b449 3d3e 6663 aa3d
000002f0: 60de 193f 5af8 16bd 2b73 993e f7f2 803e
00000300: 4af5 3fbe 73a5 4e3e 44f7 1a3c b129 f43d
00000310: 2d5c edbd 0ddf 5bbe 072e 963e 97ac 69be
00000320: 2af3 ed3e bde2 b73d f57f 81be 239d 06be
00000330: 5d48 1d3e 5fbe 31bd 3d24 723e 92af e7bd
00000340: 2037 023e 5ffd afbd eb16 81be fd72 c93e
00000350: d815 0b3e d0f6 7bbe 6e68 1f3d fefd afbe
00000360: eb5d e73b 28c4 8b3d 8708 d1bd 6748 253e
00000370: 12c9 9a3e 2254 5d3d 9140 d6be 69a9 303e
00000380: 0601 04be 9512 aebd 3182 c23c 7f04 623d
00000390: c3b0 9a3e d06c 3fbe d91e 173e 5d09 c6be
000003a0: 780c b53e bb9c 033f 2e23 2cbe e3d8 4abe
000003b0: 325e 183e ba50 7b3e a06d 0e3e a94e bebd
000003c0: 52a7 e93c b1c2 0ebe 7d8e 3a3e 9ce0 953e
000003d0: 4797 db3e 6e5e dbbd 59a5 4b3e 8863 463e
000003e0: a070 173d d4ee afbd 2dc4 3abe 6551 5c3e
000003f0: 8ae0 343e e131 b33e 6771 60bd 4edf 693e
0.14282155 0.17058015 -0.16557093 -0.34305882 -0.08480335 0.22546516 -0.05455175 0.19642526
0.16147892 -0.23225947 -0.050723914 0.3274051 0.108251035 -0.1360922 0.2202907 -0.18507245
-0.26301762 0.03161861 0.12678644 -0.09175891 0.20772123 -0.19519004 -0.3360246 0.36663234
-0.053649534 0.18260944 -0.08305841 -0.10592005 -0.01509973 0.204913 0.22953188 -0.2451695
-0.017694507 0.1591999 0.42405587 -0.37794513 -0.10016966 0.18822448 0.08393731 0.14946142
0.206175 -0.007853658 0.051197655 -0.05274297 0.39257708 0.4750976 0.4070478 0.30441737
-0.0056654667 0.26944044 0.18748158 -0.08143729 0.13173527 -0.1568742 -0.2561384 0.2947582
-0.015542604 -0.405615 0.046259202 0.097413324 0.012991677 0.04862077 0.18194717 0.26367325
-0.1990351 -0.12497176 0.3561404 -0.108774364 0.50239825 0.13113827 -0.12034261 -0.123391025
0.0010085118 -0.12937841 -0.035910834 0.19623284 0.22094892 -0.11482249 -0.22970569 -0.08177777
0.060260177 0.049198728 0.08895915 0.03883001 -0.19330464 -0.2074719 0.19231841 0.16981389
-0.18214858 0.29236597 -0.17426056 0.17938139 -0.1031434 -0.26483992 -0.09973849 -0.18968211
-0.0067694685 -0.022327747 0.094238214 -0.35203287 0.33967584 -0.23551339 -0.15002505 0.15428545
-0.06266253 0.116216004 -0.14448166 -0.29443654 0.28883624 -0.03270601 -0.21214116 0.066870905
-0.13481274 0.11231882 -0.20522021 -0.036040578 0.0932156 0.09359791 -0.0692325 -0.34536588
0.13839187 0.21809928 0.32387674 0.22377639 -0.3462552 -0.19812651 0.2045568 0.030843865
-0.0068461695 0.14941409 0.21353666 -0.12170534 -0.31257984 0.3863001 0.1417561 0.23092651
0.13507399 0.039897587 0.15513521 -0.040062383 0.037099462 0.0243399 -0.010123699 0.003238415
-0.22973883 -0.07977906 0.1618488 -0.2424235 0.073446326 -0.031501494 -0.2922232 0.037247267
-0.065872744 -0.06539814 -0.24174641 -0.25626522 -0.0676156 -0.23523408 -0.12133065 -0.124559194
-0.08069718 0.02132541 -0.09932558 0.13279039 -0.18899786 0.4002791 0.17033167 -0.27066487
-0.214552 0.19920236 -0.19138663 -0.20261428 -0.2904061 0.14642382 -0.13243449 0.25190133
0.15977329 -0.106700785 0.4788372 0.068334125 -0.020266343 -0.13819218 -0.2515728 -0.115932554
0.17891584 0.298245 0.18485147 0.0831974 0.6010494 -0.03685794 0.2997068 0.25185367
-0.18745914 0.20180301 0.009458367 0.119220145 -0.11589847 -0.21471806 0.2933199 -0.22819744
0.46474582 0.08978794 -0.25292936 -0.1314588 0.15359636 -0.043394443 0.23646636 -0.11312784
0.12716341 -0.085932486 -0.25212798 0.39345542 0.13582551 -0.2460587 0.03891795 -0.34373468
0.0070607564 0.06824523 -0.102067046 0.161409 0.3023153 0.054035313 -0.41846135 0.17252125
-0.12891015 -0.08499638 0.02374372 0.05518007 0.30212983 -0.18693852 0.14757861 -0.3867902
0.35361075 0.51411027 -0.16810295 -0.19809298 0.14879683 0.24542513 0.13909006 -0.09292347
0.028522167 -0.13941456 0.18218417 0.29272926 0.42888853 -0.107113704 0.19887294 0.19373906
0.036972642 -0.08590475 -0.18238898 0.21515425 0.1766378 0.34998992 -0.05479565 0.2283909

linear1.bias f4 [256]
00000000: 2812 703d cc09 7a3e ff83 303e a898 163d
00000010: 9701 113e a904 973e 437d 8dbc 401a 9bbe
00000020: f830 283e 4e1c df3c 299f 253c 3eb0 11be
00000030: 7afe ab3d 7670 5dbe 4a02 f1bd 1306 69be
00000040: 3669 4cbe ebc0 183d 5d13 8c3e 9d01 91bd
00000050: 79e1 e23d bb69 513d a4a1 373d 915b dc3e
00000060: 236a b6be 6b69 703e e6e6 3f3d 369c 773d
00000070: 34e5 a33e fbf3 2cbd 95dc 733e 3cee a5be
00000080: d854 d4bd c213 4b3e 9326 853e d6e3 02be
00000090: 2f18 82be 04df 653d 767a 62be a53a 89bc
000000a0: ad96 bf3c bd75 e63d 95e2 29be c97d 7b3e
000000b0: 5e41 1e3e 1032 40be 5a8a 563d 643f c43d
000000c0: 567e 9b3d c967 553d 0962 9ebd 7a0f 343e
000000d0: b0a6 593e 4ee6 23bd c99c 99be 1635 1ebe
000000e0: 8960 503e cc17 7c3c 4974 273e 30dd 923e
000000f0: a036 92bd 1958 43be 3e01 4dbe 3055 083e
00000100: c27b 8f3e e2f3 d53c 8e69 a53b 9cbe bebb
00000110: 1ed8 04bd 9b5c 423e bd31 e63d d683 0c3e
00000120: f651 1d3e 01a0 51bd 2bca 46be 4ee0 e6bd
00000130: c759 1c3e 7288 c73d fe9e 663d 3a21 823e
00000140: 094d 2fbe 1dec 72bc b972 21be 26f5 643d
00000150: 6504 e13d f0cc 553e 8996 18be 6404 ce3d
00000160: 50c7 3a3e 7a3d 723e 12e0 f83c 513f 713e
00000170: 8d8d 423e c25c 353c adb3 45be ab01 9abe
00000180: 0491 c13d 63e1 edbd c8a2 3c3d a9c0 3abe
00000190: 0a93 85be cffa 543e 7e82 77be 1982 e23d
000001a0: 3bba 883c 4fa0 7e3e 8296 7f3e ad12 ca3d
000001b0: 3099 d6bd b669 7cbd 7e90 c4bd 65a8 e8bd
000001c0: 988d a6be 8aae a5bd 9371 373d 4eec 47be
000001d0: 40bc 56be 9032 443e 44f5 3e3e 507c 0b3e
000001e0: 0db6 4a3e 2a8c 783e ec3b 103d 5e88 4ebc
000001f0: bdc4 e8bd 96d9 973e 4a44 80be fe67 5f3e
00000200: 8fbc e53d 9fa7 323e 2a3c 553e c917 ac3d
00000210: e472 603d 1faf dc3d b3f0 cabe 7b37 983d
00000220: f7d1 ed3d ced5 5dbe ac14 9a3c d46c b2be
00000230: a19a af3d c612 c93b 9c72 00be 5135 a73d
00000240: 4d02 fb3d 60ca 933d c029 333e 2dfa 373e
00000250: ab12 4e3e e8ea 193e 8685 e3bc 09ce 983e
00000260: a42e b73e d3a5 d0bc ae6a b0bd 610b 8a3e
00000270: 91b1 91bd 520a 96be a4a5 afbd c019 7bbe
00000280: 5c37 97be cd44 81be 9298 c33c 5c80 84be
00000290: 7f6c 1c3e 7aa1 3cbc 0f21 ad3e 76db 37be
000002a0: ced6 fcbd a29e 9e3e 22f1 e5bd 29d1 353e
000002b0: 6a07 5bbd 3147 b2bd 1fd0 88be f243 eebd
000002c0: 7232 953e 4904 453e b4e0 85be f2c1 843d
000002d0: 631d 193e 0357 22be 17e2 ffba fc39 8f3e
000002e0: 89a0 55bc 3429 913d 96e0 93be ed31 373e
000002f0: 71aa 65be b35d aabe 094e 9b3e 0f8b b03c
00000300: a64d d6bd 9def 51be d72b 053d 3d9c 0e3e
00000310: 5ce0 63be fc8d 82bd 96f2 fe3b 86e7 413e
00000320: b7b8 7c3e 18ea 613e 48df 283e 08f5 603e
00000330: b5a9 10bd 131b e0bd 7803 193e 39d7 dbbd
00000340: 2975 07bd 13b1 9e3d 5547 7fbe 67d9 383e
00000350: 5881 133d a643 c63d b85f ccbd 7c1e 61bd
00000360: 6410 90be 150d 363d 31d9 b1bc 66de c5bd
00000370: c814 2bbe 250d 9e3e e581 92bd 06aa 62bb
00000380: 6ef7 41be e945 abbd 042c 823e e0ba 2c3e
00000390: b734 1e3e c73d 403e caa7 84be 264c 31be
000003a0: 8004 483c 1bdb c83d 8a56 b43d 8aa2 82be
000003b0: f65e 693e 9648 f9bc 0698 5fbe 563a e13d
000003c0: c95c 853d ae73 c83d 8efc 07bd a3bc 6f3e
000003d0: 7c13 723e c0bd c73e c4d8 533e a7e4 143e
000003e0: 381b f5bc ecdb 8dbe cd75 0e3e 0b14 fdbd
000003f0: 7344 babd 11ba 92be 2a22 c13d b7e9 9ebc
0.058611065 0.244178 0.17237853 0.036766678 0.14160763 0.29495743 -0.017271644 -0.30293465
0.1642493 0.027235176 0.0101087475 -0.14227387 0.08398147 -0.21624932 -0.11768015 -0.22756223
-0.1996201 0.037293356 0.27358523 -0.07080386 0.11078162 0.051126223 0.044831887 0.4303861
-0.3562785 0.23477714 0.04685106 0.06045171 0.32010806 -0.042224865 0.23814614 -0.3240832
-0.10367745 0.19831756 0.26005992 -0.12782225 -0.25409076 0.056120887 -0.22117028 -0.016751597
0.023387277 0.112529255 -0.1659034 0.24559702 0.15454623 -0.18769097 0.052378036 0.09582403
0.07592456 0.05210093 -0.077335425 0.17584029 0.21254992 -0.040014558 -0.3000243 -0.15449938
0.20349325 0.015386533 0.16352953 0.28684378 -0.07139325 -0.19076575 -0.20020005 0.13313746
0.28024107 0.026117269 0.0050479835 -0.0058210623 -0.032432668 0.18980639 0.112399556 0.13722166
0.15363297 -0.051177982 -0.19413058 -0.112732515 0.15268622 0.09742822 0.05630397 0.25415975
-0.1711923 -0.014826802 -0.1576642 0.055897854 0.10987166 0.20878959 -0.14901175 0.10059431
0.18240094 0.23656264 0.030380283 0.2355931 0.1899931 0.0110694785 -0.19306822 -0.30079398
0.09451488 -0.11615255 0.046053678 -0.18237557 -0.26088744 0.20798801 -0.24170873 0.110599704
0.016690364 0.2486584 0.24959758 0.098668434 -0.10478437 -0.06162425 -0.09597872 -0.11360244
-0.32529902 -0.08089931 0.044786047 -0.19523737 -0.20970249 0.19159913 0.18648249 0.1362164
0.1979601 0.24272218 0.035213396 -0.012605755 -0.1136565 0.29658192 -0.250521 0.21817014
0.11217605 0.17446755 0.20823732 0.08402974 0.05479707 0.10775589 -0.39636764 0.07432457
0.11612313 -0.21663591 0.018808685 -0.34848654 0.08574415 0.006136271 -0.1254372 0.08164466
0.12256298 0.07216334 0.17496395 0.17966528 0.20124309 0.15031016 -0.02777363 0.29844692
0.3577777 -0.025469696 -0.086140975 0.26961806 -0.07113946 -0.2930475 -0.08576515 -0.24521542
-0.29534423 -0.25247803 0.023876462 -0.2587918 0.15275763 -0.011513108 0.33814284 -0.17954811
-0.12345658 0.30980402 -0.11227633 0.1775557 -0.053473867 -0.08704985 -0.26721284 -0.11634053
0.2914005 0.19239916 -0.26147997 0.06482305 0.14952616 -0.15853505 -0.0019522336 0.27973926
-0.013038763 0.07087937 -0.28882283 0.17890139 -0.224283 -0.33274612 0.30332974 0.021550683
-0.10464029 -0.20501561 0.032512512 0.13926788 -0.22253555 -0.063747376 0.0077803833 0.18935975
0.24679838 0.22061956 0.16491425 0.21968472 -0.035318095 -0.10942664 0.1494273 -0.1073441
-0.033070717 0.07748618 -0.24929555 0.18051682 0.036012024 0.09680872 -0.099791944 -0.054960713
-0.28137505 0.04444607 -0.02171001 -0.0966156 -0.16707146 0.30869403 -0.07153682 -0.0034586205
-0.18942043 -0.08362944 0.25424206 0.16868162 0.15449797 0.18773566 -0.25909263 -0.17314205
0.012208104 0.09807416 0.088055685 -0.25514632 0.22790131 -0.03043012 -0.21835336 0.10997455
0.06511838 0.09787689 -0.03319984 0.23411803 0.23640245 0.39011955 0.20688158 0.14540349
-0.029920205 -0.2770685 0.13912125 -0.123573385 -0.09095087 -0.28657582 0.094303444 -0.019398553

linear2.weight f4 [3, 256]
00000000: 01e9 c2bd 7891 fdbd 2f80 813d f2ca bebd
00000010: 2587 06be b7f2 19be c0ad abbd ee33 e13c
00000020: 60c3 1cbc 6521 2d3e 5163 013e 8605 8cbd
00000030: 5c41 993d e958 23bc 6833 94bc 6b5a 0abe
00000040: d28d 5ebd 72c0 77bd 77e2 ffbd 0c92 6f3b
00000050: 8595 87bd 7ad4 233e 2917 aebd 6aa8 82be
00000060: e7da 1b3d 4488 3fbe dc23 5e3e 0ecc 093d
00000070: 4c2f e3bd 9f35 73bd 7b82 96bd b999 d3bc
00000080: af7e 00be 4fcc 84bd b472 e3bd 09d6 203c
00000090: 0859 d1bb 7e95 f43d 0e27 9abd 2ae9 d2bd
000000a0: c213 6c3d 9c4c 313e b76c 06be d63b e9bd
000000b0: 8155 90be 863d a5bc 6dc1 ad3d 607e 08be
000000c0: fb49 2bbe 6871 3c3d 9a6f 793d 5c1b 163d
000000d0: 8435 dabd 0dbe a7bd 7ce1 57bd ee80 4f3b
000000e0: a0af fdbd 92ad 15be 557e d43d 4809 103d
000000f0: e9f6 8dbd 2c6d 94bc e409 3fbe b291 aabc
00000100: 3080 8e3d 0097 16be ae13 febd 264b b53c
00000110: c24a cd3d 26ac 5cbe a147 d13d 7835 b53d
00000120: 317c 07be e822 08be 9993 ecbc 844d 10be
00000130: 8909 d5bd cf5a 2f3d 4102 42be 5e62 193d
00000140: a0f0 9e3c 2327 16be 9b45 dbbb 0047 cdbd
00000150: cd42 b2bd 893f ffbc f220 67be 65d1 333d
00000160: 24d1 13be c2dd 53bc 0404 533e 4997 033e
00000170: be8d 723d 3197 2bbd 2041 89bc 0a61 273d
00000180: 92d6 cbbc f1b0 43be 6791 023d db0d 563c
00000190: b65a 313d fdb2 313d 1eb4 9f3d d381 97bd
000001a0: 21b6 f5bd 5e67 fdbc 8415 f0bd c48d b43d
000001b0: 07e9 bbbd 35a1 32bd be28 ecbd a714 b73d
000001c0: ded1 ad3d db0b cfbd 1520 6abe 2ee2 e73d
000001d0: 675b 6ebe 261f d93d 048d ba3c 9702 17bc
000001e0: dd4f 44be 5704 d0bd cc87 97bb 241a 643e
000001f0: d51c f93c 43b0 15be a68c 90bd fda5 9e3d
00000200: 4200 ca3d a963 edbd 0ce5 c8bc d632 3dbe
00000210: c743 47be 1e27 2d3e 10da db3c 26bb 803c
00000220: e000 8bbd 7282 523d c263 33bc 44e0 163b
00000230: bccb 7f3c 11a1 56bd f1d5 b3bb 966c 313d
00000240: f6a8 afbc 5fad 00be ba16 2ebd a392 a13c
00000250: 01fe 67bd 05cd 1bbe 9946 26bd 228f 5cbe
00000260: 7ecc 393c 8e9d dcbd 9b79 083e c9b4 06be
00000270: 489f 5dbd 405e e93a 789d d7bb 9dc7 0abe
00000280: 2679 fdbd 28ec bd3c af4f 433d a272 6c3d
00000290: 2e96 1f3c 51bb 5cbd b3db 5d3e cfc2 febd
000002a0: 5b38 1cbe 63ee c8bd ad98 223d 7151 c7bd
000002b0: 9bdd df3d 48f2 d03c c301 08be ec3b fb3b
000002c0: 1c4b 1f3e d6cb d3bd b27a c03b 2bac ba3c
000002d0: 729a 12be e6a0 83bd 35dd bb3d 09c5 07bd
000002e0: 02c8 213d e1e3 c43c d51c 9d3c 2530 8dbd
000002f0: bd52 153d c035 0abd bed8 28bd e356 b0bd
00000300: 6208 06bd 8a75 df3d 1c40 0cbe 537a 053e
00000310: 5259 c13b 94cc d03d 5af5 9fbd 21a0 cfbd
00000320: f2f3 5fbd a57f 15be 2a07 c4bd 5ecd 84bd
00000330: b701 cc3b c34e d6bd 37a8 bcbc 093c b1bd
00000340: 5a88 08be 7015 57bd bcef 1b3d b5f4 0ebd
00000350: f4bf 23be a279 68bd 5255 3abd a226 1bbe
00000360: 8744 283b 3c0d c1ba 8708 1f3d 9a0a 983d
00000370: acd5 0a3e ebc6 22bd 8cf7 84bd 9e05 b23e
00000380: 4130 14bd 1514 59bd 0ea3 1abe fb0a 4a3c
00000390: 5a39 8bbd 696a 3c3c 8be5 5ebc f0fa 7fbd
000003a0: ba60 69be 3ac1 e0bd 7114 04bb e02e bcbc
000003b0: 4dd2 863e 9fc0 9dbd 646b 95bd 8ab9 24be
000003c0: e2cd 84bd 5cde 68be 0c99 03bd aee0 443e
000003d0: c2ac 393e e0c9 37be 0bec 73bd 7214 1abd
000003e0: aff7 363e 78b0 68bc 6e4f 01be 6487 85be
000003f0: acaf 32bc 945a 273d 8c60 fabd f2a5 4b3d
-0.09517098 -0.123812616 0.06323277 -0.093160525 -0.13137491 -0.15033995 -0.083827496 0.027490582
-0.009568065 0.1690727 0.12635542 -0.06836991 0.074831694 -0.009969928 -0.018090919 -0.13511054
-0.05433447 -0.060486265 -0.124943666 0.0036555557 -0.066203155 0.15999022 -0.08500511 -0.25519115
0.03805056 -0.18704325 0.21693367 0.033641867 -0.110930055 -0.05937731 -0.07349106 -0.025830137
-0.12548326 -0.06484281 -0.11105862 0.009816655 -0.006388787 0.11942576 -0.0752698 -0.10298379
0.05763603 0.1731438 -0.13127409 -0.11388366 -0.28190234 -0.020170938 0.08484159 -0.13329458
-0.1672744 0.04600659 0.060897447 0.036647186 -0.106547385 -0.08190546 -0.052705273 0.0031662541
-0.123870134 -0.14616993 0.103756584 0.0351651 -0.0693186 -0.018118463 -0.18656117 -0.020821426
0.069580436 -0.1470604 -0.12406097 0.02213056 0.100240245 -0.21550044 0.1021874 0.08848089
-0.13230969 -0.13294566 -0.028878974 -0.1409207 -0.10402209 0.04281121 -0.18946172 0.037447326
0.019401848 -0.14663367 -0.006691647 -0.10023308 -0.087041475 -0.031158226 -0.22571161 0.043900866
-0.1443525 -0.012931289 0.20607 0.1285068 0.059217207 -0.041892234 -0.016754687 0.040864028
-0.024882589 -0.19110467 0.031876948 0.013064827 0.0432994 0.043383587 0.077980265 -0.07397809
-0.11997629 -0.030933078 -0.11722854 0.08816102 -0.09175306 -0.04361077 -0.115312085 0.08939486
0.084872946 -0.10109683 -0.22863801 0.11322437 -0.23277055 0.10601644 0.02277232 -0.009216926
-0.1917109 -0.10157078 -0.0046243425 0.22275597 0.030409256 -0.1461802 -0.070580766 0.077465035
0.098633304 -0.11591274 -0.02452328 -0.18476424 -0.19459449 0.16909453 0.026837379 0.01571424
-0.06787276 0.051393934 -0.010949077 0.0023021856 0.015612539 -0.0523997 -0.0054881503 0.043316446
-0.021442872 -0.12566136 -0.042502142 0.019723242 -0.05663872 -0.15214927 -0.04059467 -0.21538976
0.011340259 -0.10772239 0.13327639 -0.13154902 -0.05410698 0.0017804578 -0.006580051 -0.13552709
-0.12376623 0.023183897 0.047683414 0.05772651 0.0097403955 -0.053889576 0.2166584 -0.124395005
-0.15255873 -0.09811094 0.039696384 -0.097323306 0.1093094 0.025506154 -0.13281922 0.0076670554
0.15555996 -0.10341613 0.0058740014 0.022787174 -0.14316729 -0.06427173 0.09173051 -0.03314689
0.039497383 0.024034442 0.019178787 -0.068939485 0.03645586 -0.033742666 -0.041222326 -0.08610322
-0.03272284 0.10911091 -0.13696331 0.13034944 0.0059005404 0.1019527 -0.07810469 -0.10137964
-0.054676004 -0.14599474 -0.09571679 -0.06484483 0.0062257904 -0.10464241 -0.02302943 -0.08654029
-0.13333264 -0.05251068 0.038070425 -0.03490134 -0.15991193 -0.056756623 -0.045491524 -0.15151456
0.002567561 -0.0014728676 0.03882649 0.07423897 0.13558072 -0.039740484 -0.06492528 0.3476991
-0.03617883 -0.052997667 -0.15101263 0.0123317195 -0.06798048 0.0114999795 -0.013604532 -0.062495172
-0.22790805 -0.10974355 -0.0020153786 -0.02297157 0.26332322 -0.07702755 -0.07295874 -0.16086403
-0.064845815 -0.22741073 -0.03212838 0.19226333 0.18132308 -0.17948103 -0.05955128 -0.037617154
0.17867921 -0.01420223 -0.12627956 -0.26079857 -0.010906141 0.040857866 -0.12225446 0.049718805

linear2.bias f4 [3]
00000000: d3b7 96bd 4124 74bd cb87 52bd
-0.073592804 -0.059604887 -0.051399034
