trained_models/dql_snake_model.pth (torch, 17488 bytes, 4 tensors)

linear1.weight f4 [256, 11]
000000 81 00 e4 bd d9 f4 2d 3e 7f 93 e7 3e fe f4 ab 3d
       -0.111329086 0.16987933 0.45229718 0.08396338
000010 d5 d6 89 be 84 3b 19 bd 16 d2 5f bd d5 3c a0 be
       -0.26921716 -0.037410274 -0.054643713 -0.3129641
000020 fa bd cb 3e aa 3d b3 bc f2 c8 11 3d 96 4c 1a 3f
       0.39793378 -0.02187999 0.035592027 0.6027311
000030 32 e0 01 3f c0 79 c7 be 78 51 9d 3c 7c 53 aa bc
       0.5073272 -0.38960075 0.019203886 -0.020791762
000040 d2 4b 09 be ae 48 97 3d db cc 1e be 3a 9b 83 3d
       -0.1340783 0.073869094 -0.15507834 0.064260915
000050 08 5f 8d 3e 27 eb d2 3d 40 0b f8 bd 7a 47 e3 bd
       0.27611566 0.10298758 -0.12111521 -0.110976174
000060 a7 35 40 be e8 8b 6c be 76 48 45 be 1a 9a 65 be
       -0.18770467 -0.23100245 -0.19265923 -0.22422066
000070 07 04 46 3d a0 e2 27 be ef c6 fb 3d 1d b9 75 be
       0.048343685 -0.16395044 0.12293803 -0.23996396
000080 3a fa df bd 48 82 a3 3e d2 8c 91 be 3e 5f c8 be
       -0.10936399 0.31935334 -0.2842775 -0.39135164
000090 7b d8 88 be 1e 23 26 3d 47 66 e9 bc 6d ba 1c be
       -0.26727661 0.040560834 -0.028491152 -0.15305491
0000a0 ab 29 99 3d 45 1c 1d 3e 65 16 6c be 8d 39 92 3d
       0.07478651 0.15342815 -0.23055418 0.07139883
0000b0 51 cf a3 be 10 19 78 be c6 94 4a be a7 2b 00 3e
       -0.31994107 -0.2422831 -0.19783315 0.12516652
0000c0 aa a9 93 3e 82 f8 4e 3e 4b 0a 2b be b1 73 61 3a
       0.2884038 0.20211986 -0.16703145 0.0008600308
0000d0 fe 44 2e be af 44 64 be 4b 52 a6 be 2c 1f 07 be
       -0.17018506 -0.22291826 -0.3248466 -0.13195485
0000e0 fd bb a7 3e f2 9f 2a 3e 22 c9 95 be c3 f9 74 3e
       0.3276061 0.16662577 -0.29255015 0.23923402
0000f0 a0 88 11 be 7e f0 38 3e c3 54 c2 be 2a d5 21 be
       -0.14212275 0.1806049 -0.37955293 -0.15803972
000100 cd 9e 7c 3e d2 42 c3 3c ff fb 8f bd 7c 66 81 3e
       0.24669953 0.023835573 -0.07030486 0.25273502
000110 70 65 9f bd af 5f 0f be 85 72 04 be 9a 18 a1 3d
       -0.077830195 -0.14001344 -0.1293431 0.078660205
000120 ae 16 97 be 38 2d 5b 3d c1 a4 50 be a7 0f a0 be
       -0.2950949 0.05350992 -0.20375349 -0.31261942
000130 ca 54 5e bd 6f 06 29 be 27 59 95 3d 4f 21 78 3e
       -0.05428008 -0.1650636 0.07292395 0.24231456
000140 ac f4 99 bd f4 29 b1 be 0f da 41 3d 86 67 00 be
       -0.075173706 -0.3460232 0.047327098 -0.12539491
000150 c7 57 c4 bd 64 85 41 3e c3 76 a7 be 0e a4 26 3d
       -0.09587055 0.1889854 -0.32707796 0.0406838
000160 41 9a be be 20 c0 ee 3d 20 ea 22 be 42 e5 e3 3d
       -0.3722706 0.11657739 -0.15909624 0.11127712
000170 fd 54 62 3e 85 35 60 be 31 04 99 3e 92 7c 54 be
       0.22102733 -0.21895416 0.2988601 -0.20750645
000180 bf 76 51 3e e6 0c 92 be 15 83 8b 3d b8 3c 2c 3d
       0.20455454 -0.28525466 0.06812111 0.042050093
000190 b5 c0 aa be fe 85 8a 3e 3e ed 2f be cc ec 6d be
       -0.3335015 0.27055353 -0.17180344 -0.23234862
0001a0 15 a5 9b 3d 15 db 05 3e 22 24 20 3d a4 13 a2 3e
       0.07599846 0.13071854 0.03909696 0.3165561
0001b0 d2 ff ef 3d 6e 2b 2c be 59 88 be be be 17 d2 be
       0.11718716 -0.16813442 -0.372134 -0.4103374
0001c0 94 8a 85 3d 82 fb 88 3e d7 ea 91 3e f3 3e 91 3e
       0.06520572 0.26754385 0.2849948 0.2836834
0001d0 2d f2 87 3e 81 42 4d bd c9 a4 09 be 2e bd 1d 3e
       0.26551953 -0.05011225 -0.13441767 0.15404198
0001e0 5d 65 99 3e 28 48 5f be a8 62 4f bd 8e a7 d6 bd
       0.29960147 -0.21804869 -0.050631195 -0.10481177
0001f0 51 db 61 3d 70 44 8b bd e9 dd fa 3d ca fd f5 bd
       0.055140797 -0.06800163 0.12249357 -0.12011297
000200 92 04 7d be 17 bb cf 3d 71 3b 29 be ac 23 6a 3d
       -0.24708775 0.101431064 -0.16526581 0.057162926
000210 c7 99 49 bd f7 15 d4 bd 79 e7 d9 3e ff 02 5d bd
       -0.04921892 -0.10355752 0.42559412 -0.053957935
000220 38 6c cc be 52 42 99 3d d6 e0 e5 3d ea 76 96 be
       -0.39926314 0.07483353 0.11224525 -0.293876
000230 b1 b1 c4 bd 4f 7c 02 3e 31 12 c8 3d 57 ea b1 3e
       -0.096042044 0.12742732 0.09769095 0.347491
000240 4a c8 b9 3d cd 6b d7 3d 3e 71 59 3e 7c cc 36 be
       0.09071405 0.10518608 0.21234605 -0.17851442
000250 27 a3 af 3e 82 63 bf be cb aa 16 be 8b 36 7a 3e
       0.34304163 -0.37380606 -0.1471359 0.24434869
000260 6f 74 68 be b2 55 75 bd 88 af 19 3f 18 64 0e bf
       -0.22700666 -0.05989618 0.60033464 -0.5562148
000270 c5 96 9a 3e 82 e3 99 3d 4a 1f 0b 3e 36 72 e5 3c
       0.30193153 0.07514097 0.13586155 0.028008562
000280 4c 46 52 3d 41 f7 9c 3e dd b1 4b 3b 39 c8 32 3e
       0.05133657 0.3065739 0.0031081357 0.17459191
000290 a7 3b 45 3d 60 a8 50 be 5d 55 a8 3e bb 24 f6 bd
       0.048152592 -0.2037673 0.32877627 -0.120187245
0002a0 e7 76 ac be bd 21 b3 3e da 59 6b be a6 61 a4 bc
       -0.33684465 0.34986678 -0.22983494 -0.020066094
0002b0 ae 0e 27 bd 39 74 41 3e f7 57 f3 3c a9 34 46 be
       -0.040785484 0.18891992 0.02970503 -0.19356026
0002c0 c6 14 24 be 54 ae 77 be b4 e7 2f 3e 2b ee 4b 3e
       -0.1602355 -0.24187595 0.17178231 0.19915073
0002d0 1e fb 5a be cf 41 d6 bd dd 8e fc bd dd d3 3c 3b
       -0.21384856 -0.10461771 -0.123319365 0.0028812804
0002e0 67 7e 07 be 74 2b 28 3d c8 75 ef 3c 2e 2b 8f be
       -0.13231812 0.041057065 0.029230967 -0.2796263
0002f0 34 b2 54 3e 3d a3 b7 3d de fd 80 3e cf 4d f7 3d
       0.20771104 0.08966682 0.25193685 0.12075388
000300 e6 52 b8 be 66 9d a9 be cc 4e 90 3e 11 07 7e be
       -0.36000746 -0.33127898 0.28185117 -0.24807383
000310 46 ca f1 be 35 35 8a be 04 ff a4 be 36 3b a9 3e
       -0.47224635 -0.2699372 -0.3222581 0.33052987
000320 83 0f 8a be a8 8e 93 be be 62 7f be 89 37 1c be
       -0.2696496 -0.28819776 -0.24940011 -0.1525556
000330 9a b9 09 3b 1b e8 36 be 81 2e bd be 2b d2 6f 3e
       0.0021015168 -0.17861979 -0.36949542 0.23420016
000340 7c d9 77 3e 14 04 90 3d 82 d0 8c 3d f5 b5 95 3d
       0.24204057 0.07032028 0.06875707 0.07310096
000350 ee 8b 4b be bd 17 ce be 7c 6d c5 3c 21 f6 1c bd
       -0.19877598 -0.40252486 0.024100058 -0.038320664
000360 dd d6 41 be 46 d8 ac 3e e8 31 1d be af fe aa bd
       -0.1892962 0.33758754 -0.15351069 -0.08349358
000370 7d bf dc 3e bf fe bb 3e 11 0d a9 be 2f b2 d3 be
       0.43114844 0.36717793 -0.3301778 -0.4134688
000380 ce e8 9d 3e 4c fb 2b 3d 91 b8 c0 3d 29 69 18 3e
       0.30841678 0.041987702 0.09410203 0.14883865
000390 f4 ad 14 be bd 6d 18 3e 8b 06 67 be 7f 0f a7 3e
       -0.14519483 0.14885612 -0.2256109 0.3262901
0003a0 e7 1f bd 3e 7f fb 8f be a5 d6 a3 bd 8e bb 3a be
       0.36938402 -0.28121564 -0.079999246 -0.18235609
0003b0 b1 59 97 3d f1 d7 05 be d9 53 46 3e 2e 6f 9d 3c
       0.07390154 -0.13070656 0.19367923 0.019218054
0003c0 f7 3f 93 be 1a 6c d8 3c 26 7a 02 3f c3 ac d7 3d
       -0.2875974 0.026418734 0.50967634 0.105309986
0003d0 97 55 04 bf 93 9d e0 3c b6 e0 1f be 38 38 8c be
       -0.516931 0.027418887 -0.15613064 -0.27386642
0003e0 88 cc 82 be 9a 8a ce 3d 2c fd f6 3d a2 b4 a0 3e
       -0.2554667 0.1008503 0.120600075 0.31387812
0003f0 af c8 82 3e cc 01 22 3d 6a e9 0c 3f 05 ba 44 bd
       0.25543734 0.039552495 0.5504366 -0.048028965

linear1.bias f4 [256]
000000 24 a2 af 3c 0a e1 27 3e 41 4c 72 be b7 cc 6e 3e
       0.02143962 0.1639444 -0.23661901 0.2332028
000010 a1 87 96 3e 52 d3 8a be db e9 a2 3d 70 e0 f0 3d
       0.29400352 -0.2711435 0.07954761 0.11761558
000020 b2 4d 8b bd 42 35 87 3c a8 f0 f5 3c 0a e6 9a be
       -0.068019286 0.016504887 0.03002198 -0.3025363
000030 b4 02 fd 3c 5b 62 06 be 40 c5 f7 bd 1d f6 61 be
       0.030885078 -0.13123457 -0.12098169 -0.22066541
000040 99 f4 2f bd 8b 06 3c bd e1 51 34 3e 5c 6e 0c 3e
       -0.042957876 -0.045904677 0.1760936 0.13713974
000050 0f f7 f1 bd 0a 2c 60 be 6e 8b 16 3d f7 c7 98 3d
       -0.11814701 -0.218918 0.036754064 0.07460015
000060 be c8 9c 3e 4c 8f d7 bd 2f 28 cb 3d 97 f0 f6 bb
       0.30621904 -0.105253786 0.09919774 -0.0075360048
000070 df d5 ee 3d 32 ec b0 be a6 2b 1e be 04 e9 9c bd
       0.116618864 -0.34555203 -0.15446338 -0.07661632
000080 0f 0e 06 be 9f 32 08 3e f0 86 ec bb c9 3b 2b 3d
       -0.130913 0.1330056 -0.0072182342 0.041805062
000090 47 82 c5 bb c2 8c d8 3c 17 24 1b b9 87 dd 2b be
       -0.006027493 0.026434306 -0.00014795396 -0.16783725
0000a0 92 32 80 bd ec 4d e7 bd 65 59 37 3e cd 1c c6 3b
       -0.062596455 -0.11294159 0.17905195 0.006045914
0000b0 99 74 5b 3e 13 4f c6 3d c0 62 5d 3e e6 42 54 bd
       0.21431197 0.09683051 0.21619701 -0.05182161
0000c0 0c c6 8b ba c5 65 12 be 47 78 55 bd 9e ba 64 be
       -0.0010663881 -0.14296634 -0.05211666 -0.22336814
0000d0 98 47 7e 3d 2e 7b 7d 3c 93 2f 0c bd 77 be 8e 3c
       0.062079996 0.015471263 -0.034225058 0.017424805
0000e0 a8 8f 78 bb d0 c9 1b be a7 cf 04 3c f9 27 b5 be
       -0.0037927423 -0.15213704 0.008106149 -0.3538206
0000f0 2e 43 3a be d5 c0 93 3e 3b 7a 2a 3e 70 22 78 be
       -0.1818969 0.28858057 0.1664819 -0.24231887
000100 1a 10 04 3e fd ed 9e 3e c3 89 2e 3c f7 a7 24 3e
       0.12896767 0.31040946 0.010652962 0.16079699
000110 82 70 bd 3d dc 4e 56 be 36 ee 2e bd 64 9b 29 bc
       0.09249975 -0.2092852 -0.042707644 -0.010351989
000120 87 b3 ee bd a5 b1 32 bd f8 d7 22 3e 2d c5 3c 3d
       -0.11655336 -0.043626446 0.15902698 0.04608648
000130 65 52 b3 3c e6 9a 80 3e f5 95 cb 3d 5f df b1 3d
       0.021889875 0.25118178 0.099407114 0.08685183
000140 34 21 c9 bc 67 7a aa be 94 26 da 3d f3 d0 99 3d
       -0.024551965 -0.3329651 0.106518894 0.07510557
000150 e8 ae 57 be 0b a1 53 bd eb 73 1b 3e f5 84 1d be
       -0.21062815 -0.051667254 0.15180938 -0.1538275
000160 98 5a 35 3e 19 11 a3 be 89 f3 88 3c 41 3f 2a 3e
       0.1771034 -0.31848982 0.01671769 0.16625692
000170 d7 8a 21 3e a1 9b ea bc e5 08 32 be c2 e5 9f be
       0.1577562 -0.028638663 -0.17386205 -0.3122998
000180 44 d0 9e bd c2 83 03 bd 53 e5 68 bd 95 f8 62 3e
       -0.07754567 -0.032108076 -0.056859326 0.22165139
000190 0b 88 e7 bb d0 71 46 3d a4 e4 5b be 71 0c 41 be
       -0.007065778 0.048448384 -0.21473938 -0.18852402
0001a0 42 66 86 3d 7d dc 0c 3e ca ef 41 be 01 2f 0d 3e
       0.06562473 0.13755985 -0.18939129 0.13787462
0001b0 55 3d 10 be 16 bd c3 3d 18 62 57 3d 5f 1c 05 be
       -0.14085896 0.0955755 0.052583784 -0.12999104
0001c0 fa ce a7 3d 84 a2 10 3c 4a 37 04 3d 52 60 5d 3c
       0.081937745 0.008827809 0.03227929 0.013511734
0001d0 fb 40 16 3e 1f ec 04 bd 86 2d 44 be b7 0e e4 3d
       0.14673226 -0.032451745 -0.19157991 0.11135619
0001e0 5c c7 f8 3d a6 c2 2a bd db 8d 61 3e 3e 9f fd 3c
       0.121474 -0.041689537 0.2202677 0.030959722
0001f0 43 40 da bc 98 01 79 bc f2 e0 dc bd fe 17 dc 3c
       -0.02664197 -0.015198134 -0.107850924 0.02686691
000200 d3 05 ce bd 86 60 a0 3e b1 3e 11 be 46 40 cb be
       -0.10059705 0.31323642 -0.14184071 -0.39697474
000210 cc 8c 4e be 74 65 10 bb 79 b5 2b 3e 48 50 7a be
       -0.20170897 -0.0022033127 0.16768445 -0.24444687
000220 78 86 84 be 6b b3 4c bc e7 95 de bd e8 34 67 3d
       -0.25883842 -0.012493948 -0.10868435 0.05644694
000230 f5 93 a7 3d 0c 26 12 be f1 cf 06 be 15 59 43 be
       0.081825174 -0.14272326 -0.13165261 -0.19076951
000240 d9 1a 3f be e1 89 ac 3e dc 8c 53 be ec f7 3b be
       -0.18662585 0.33698943 -0.20659202 -0.18356293
000250 6f 85 a7 3d 32 6b 81 be 32 07 54 be 3d 29 b8 3d
       0.08179747 -0.25277096 -0.2070587 0.089922406
000260 a3 d0 09 3e 6e 6d 92 3d 79 45 1a be aa b7 8e bc
       0.13458495 0.07149778 -0.15065564 -0.017421562
000270 0e 04 19 be 0f c8 d9 3d c7 98 d5 3d 5b 22 24 be
       -0.14942953 0.10633861 0.104295306 -0.1602873
000280 45 00 52 3d ca 8d 9d be bf ba 88 bd c1 c0 da 3e
       0.05126979 -0.3077224 -0.06676244 0.42725185
000290 a4 ae 9f 3e 0d d1 11 be a9 c8 a0 be 5e 06 1e be
       0.31187928 -0.14239903 -0.31403092 -0.15432116
0002a0 d1 82 e5 bd eb 07 59 3e da b6 dc bd f5 cd 2d bd
       -0.11206592 0.21194427 -0.10777064 -0.042432744
0002b0 fc ff 1f 3d 1f 9d 91 be 3d a6 1f be 8a ec c2 3d
       0.039062485 -0.28440186 -0.15590759 0.095177725
0002c0 09 ca 89 bd fb 0d 99 be d0 f5 90 bd df 2e 04 3e
       -0.06727988 -0.2989348 -0.07078135 0.12908505
0002d0 d7 cf fa 3d 22 4f c7 3d be 22 cb 3d 11 90 a6 bd
       0.122466736 0.0973189 0.09918736 -0.08132947
0002e0 ed 2b 55 3e 8b 10 4f bd f3 f9 24 3e f4 7a a0 bc
       0.20817538 -0.050552886 0.16110973 -0.019589879
0002f0 ad c0 3d 3e 93 e7 31 be fe d4 54 be d1 12 9c be
       0.18530531 -0.17373495 -0.20784375 -0.30483106
000300 96 73 82 3e 13 0d 9a be 5f e0 99 be a2 6e 21 bd
       0.2547881 -0.300881 -0.30053994 -0.03941215
000310 6f a1 7e be a5 2e 1d be f3 8d 0b be 01 4f 28 bd
       -0.2486627 -0.15349825 -0.13628368 -0.04109097
000320 ca 3c 51 3b 33 3e ac bb e6 c0 81 3e 01 6a ec 3c
       0.0031927102 -0.005256438 0.25342482 0.02885914
000330 51 ba ed 3d b9 1a 16 be 7c 1d 4a be 69 c3 32 3d
       0.11607803 -0.14658631 -0.1973781 0.04364339
000340 95 18 63 3d 8c d2 a3 3d 97 99 ac bd ff 88 97 be
       0.055443365 0.07999143 -0.084277324 -0.29596707
000350 2a bd d4 3e 33 22 e2 bd 68 5b 2e be dd a7 11 be
       0.4155057 -0.11041679 -0.17027056 -0.14224191
000360 6d 86 51 be fb d0 2e 3e b1 35 89 3d a1 16 1c be
       -0.20461436 0.17071907 0.06699694 -0.15243007
000370 01 5f 50 be 4d 6c 3b be 8e 0e b6 3c fb 3a d5 3e
       -0.20348741 -0.18303032 0.022223737 0.4164656
000380 18 96 91 3e bd 86 40 be d9 bd a5 be 72 0c fc bd
       0.28434825 -0.18801399 -0.32371405 -0.12307061
000390 2d b0 2d be d4 8d 5b 3e 0b 9c 43 be cd 24 2a be
       -0.16961737 0.21440822 -0.19102494 -0.16615601
0003a0 68 90 a0 3d 39 80 21 bd 1a 1d 0a be 5f 65 44 3e
       0.07840043 -0.039428923 -0.13487664 0.19179295
0003b0 07 29 16 be 6b 65 7f bd fd 95 3c be eb 00 68 bc
       -0.14664088 -0.06235258 -0.18416591 -0.014160375
0003c0 e8 ba df bd 70 ad 58 bd 81 54 6a be ab e4 c2 bd
       -0.109243214 -0.052899778 -0.22883798 -0.09516271
0003d0 40 df 60 be bd 89 67 3d a5 01 58 3e ce 9d 23 be
       -0.21960163 0.05652784 0.21094377 -0.15978166
0003e0 06 17 03 3d 90 8c cd bc e9 b7 d6 bd f1 0d aa 3d
       0.03200438 -0.02509144 -0.10484297 0.0830344
0003f0 67 c8 98 3e 30 bc 6f 3e f1 8d 41 bd 05 0c 16 3e
       0.29840395 0.23411632 -0.047254506 0.14653023

linear2.weight f4 [3, 256]
000000 2c 88 98 bd 86 cb 9e bd ea 0f a3 3c ec 73 0e bc
       -0.07447848 -0.07753663 0.01990505 -0.00869463
000010 bf f5 9a 3e c6 ce bf bd 9b fa 4e bd 54 d4 99 bd
       0.30265614 -0.09365611 -0.050531965 -0.075112015
000020 12 cc 69 3e db 1c ca bd 8c 37 5b 3e d1 b0 3e bb
       0.22831753 -0.09868785 0.21407908 -0.002909709
000030 41 6c f1 3d 22 2a f7 bd e4 2e 33 be 35 9c 51 3e
       0.11788226 -0.12068583 -0.17498356 0.20469745
000040 c6 83 83 be 2a 7f 66 3e 4c 9a 2d 3e e9 21 2b be
       -0.25686473 0.22509447 0.16953391 -0.16712154
000050 8d ca 44 be 76 7c 91 bc 55 d2 57 be a1 7d b1 3c
       -0.19217892 -0.017759543 -0.21076329 0.02166635
000060 d0 0a 13 3e 0d 5d 1e be 1e cf f0 bd c5 e0 2e be
       0.14359593 -0.15465184 -0.117582545 -0.1707793
000070 ec a0 e0 bc 93 07 c6 b9 9d 07 4b be e5 b9 11 bd
       -0.027420484 -0.00037771146 -0.19827123 -0.035577673
000080 13 c3 e4 bd 2d 7c 68 3d c7 6d be bd 3e 92 b0 3e
       -0.1117002 0.05675905 -0.09298282 0.34486574
000090 87 24 5b 3e 0b d6 af be 26 01 3c 3e 58 7b 92 3c
       0.21400653 -0.3434299 0.18359813 0.01788108
0000a0 9f 6a d5 3b ca 35 59 be 7b cc d6 3a 6f c9 55 be
       0.0065129544 -0.21211925 0.0016387844 -0.20877622
0000b0 01 01 87 3d 72 13 1f be ec b7 64 3e 38 96 30 bd
       0.06591988 -0.15534762 0.22335786 -0.04311201
0000c0 ab 5e f2 bd 04 66 b9 bd 16 79 09 bd a5 ca 56 bd
       -0.11834463 -0.09052661 -0.033562742 -0.05243935
0000d0 e6 ef 0c be f5 8b 3c 3e 07 20 2d bc 40 60 70 3e
       -0.13763389 0.18412764 -0.010566718 0.23474216
0000e0 f5 4b 8c 3d 5b 75 cd be f4 59 d4 be 1e a7 83 bd
       0.06850425 -0.40128598 -0.4147488 -0.064283594
0000f0 4c f8 09 3d ac a8 51 3e 53 0d a3 bd 2c 38 f3 3c
       0.03368406 0.204745 -0.07961526 0.02968987
000100 d5 76 f7 3a 1e d9 31 3e fa 08 45 bc 6c ee 8f 3e
       0.0018880019 0.1736798 -0.012026066 0.2811159
000110 6d d2 b3 bd 50 54 fc bd 9a 94 1c 3e 32 a6 dc bd
       -0.0878037 -0.12320769 0.15291062 -0.10773887
000120 c3 a8 84 be b5 3a eb 3d aa b9 8f be 15 8e 9d bd
       -0.25910005 0.11485807 -0.28071338 -0.076931156
000130 3c 3b 0f 3d ab 77 82 3e 52 e7 68 bd 3c 44 2f 3e
       0.0349686 0.25481924 -0.05686123 0.17115873
000140 bb 03 43 bd bd d7 32 bc f1 7e 1a be e8 1f 1b 3d
       -0.04761098 -0.010915694 -0.15087487 0.037872225
000150 62 b6 78 3d a1 71 cb 3c 2a eb bc bd 22 06 0e bd
       0.06072081 0.024834456 -0.092245415 -0.034673817
000160 19 d6 8f bd 07 8b 3a 3d 73 05 59 be 0b 65 d7 bd
       -0.07023258 0.045542743 -0.21193485 -0.10517319
000170 96 8d 8c 3b 38 7c cc bd f0 43 cf bb 7b e8 84 3b
       0.0042893393 -0.0998463 -0.0063252375 0.004056034
000180 85 6d 8f bd 3d 7a a8 be 71 74 5c 3e 4f f3 2f 3e
       -0.07003311 -0.3290576 0.21528794 0.17182659
000190 ee b8 d6 bd d2 53 d4 bd 84 ac 1b 3d 33 bb 22 3c
       -0.10484491 -0.1036755 0.03800632 0.009932327
0001a0 76 fa 82 3e 3c 7a 0c be 3a f6 38 be 4b e5 b1 3d
       0.25581712 -0.13718504 -0.18062678 0.08686312
0001b0 8d 9c 4e 3e f9 be f9 bd a9 30 a5 bd 93 09 f9 bd
       0.20176907 -0.12194628 -0.08065922 -0.12160029
0001c0 45 ea 39 3e e1 c1 9c bd 8c 7d 27 3c ad c4 10 be
       0.18155773 -0.07654167 0.010222804 -0.14137526
0001d0 fb 2d 0e bd 41 3d f5 3c 1b 09 f6 3d ad 33 bb 3c
       -0.03471182 0.029936435 0.120134555 0.02285179
0001e0 9c 2a d6 3d be c6 ff bd 75 f7 71 3e 40 e8 5f 3d
       0.10457346 -0.12489079 0.23629554 0.05466485
0001f0 07 93 af be f5 5e 4d 3e e0 10 0e be c0 f6 84 bd
       -0.3429186 0.20055754 -0.13873625 -0.06492376
000200 38 33 2c be 71 16 35 3e 9e c3 5a 3e 57 4c 69 3c
       -0.16816413 0.17684342 0.21363685 0.014239392
000210 cc c6 87 bc 83 bf 17 be 8c 68 bc bd 70 df 80 bc
       -0.016574286 -0.1481915 -0.09199628 -0.015731543
000220 91 35 f6 3d 73 dc 28 3d 4b ca ed bd 92 41 85 bd
       0.12021936 0.04122586 -0.1161085 -0.06506647
000230 cb d9 47 be 76 b9 5c 3d dc dd 1b 3e 0e f5 57 3e
       -0.19516675 0.053887807 0.15221351 0.21089575
000240 b1 e0 78 3e 39 a4 a6 3a 83 e3 d9 3d d1 db 2d be
       0.24304463 0.0012713737 0.106390975 -0.16978385
000250 63 d8 aa 3d 73 0a 84 be 81 75 a1 be 7b ae 30 3d
       0.08342054 -0.25789222 -0.3153496 0.043135148
000260 38 6e 73 3b ca 09 7c 3e af 54 41 be 23 fa 36 be
       0.0037144553 0.24613109 -0.1887996 -0.17868857
000270 32 14 35 be 03 29 10 3e b6 e3 00 be 05 5d 7a be
       -0.17683485 0.14078145 -0.12586865 -0.24449547
000280 d7 4a bb b9 9e dd 3c 3d 2e 69 0f be d5 d0 78 3e
       -0.0003572318 0.046109788 -0.14004967 0.24298413
000290 a6 8a 85 3e 25 cc 6b be 4a 22 9a be 0a d8 83 be
       0.26082343 -0.23027094 -0.30104285 -0.25750762
0002a0 f9 6f 89 be 1c 57 9d bc 4d 61 a7 bd 49 16 d1 bd
       -0.2684324 -0.019206576 -0.081728555 -0.10209329
0002b0 71 e7 42 3d 61 b0 dd bb cf 03 99 bc 7d 29 63 3e
       0.047584 -0.006765411 -0.018678574 0.22183795
0002c0 8d 3f b2 bc ad 0f 42 bd 0c 5d 11 be 10 c1 fd 3b
       -0.021758819 -0.04737823 -0.14195651 0.007743962
0002d0 2e 7b 24 bc 7b bb 06 bd fb 90 1e 3e 82 e0 33 bd
       -0.010039134 -0.03289364 0.15484993 -0.04391528
0002e0 92 be f6 bc 29 66 64 be 82 bc 9c 3e 99 87 b5 3d
       -0.030120168 -0.22304596 0.3061257 0.08863754
0002f0 5f c1 56 bd 50 af d3 3d 3e a3 7e bd 0c 3a af bc
       -0.052430507 0.103361726 -0.0621674 -0.021389984
000300 e3 77 36 3e bf a6 55 bc e8 0d 7a 3c 35 d1 10 3e
       0.1781917 -0.013040244 0.015262105 0.14142306
000310 09 48 2d bc 73 f3 05 be e1 1f 7e be ff 43 26 3e
       -0.010576257 -0.1308115 -0.24816848 0.16236876
000320 df f4 0e 3d 1a f6 8c bd 0f 10 86 be ea c6 d7 3d
       0.034901496 -0.06882878 -0.26184127 0.10535987
000330 9a 00 9f bc 5a 43 40 bd a0 01 8f be 82 56 22 bd
       -0.019409467 -0.04693923 -0.27930927 -0.03963328
000340 6a 3d f4 3c 5f 47 4a be c6 f9 dc bd 2a 17 12 be
       0.02981444 -0.19753788 -0.10789828 -0.14266649
000350 ae 77 81 3e 69 15 1e 3e 66 95 1d be 96 b0 b5 be
       0.2528662 0.15437855 -0.15389022 -0.35486287
000360 cc 88 be bc bb 9e 99 3d b0 83 8c 3e 39 ec 89 be
       -0.02325859 0.075009786 0.2744422 -0.26938036
000370 c3 1b 79 bd 28 2e 3b be 42 44 b8 bd bc d8 82 3e
       -0.06081749 -0.18279326 -0.08997394 0.2555598
000380 68 da 82 3e 43 cc 9d bd 4f 14 e1 bb 3e 12 9a be
       0.25557256 -0.077049755 -0.006868876 -0.30092043
000390 4a 33 eb bc e3 bc be 3e 63 71 bb 3d ed 74 41 3e
       -0.02871098 0.37253484 0.09152486 0.1889226
0003a0 87 b1 b5 bd 56 83 38 be c1 6c 35 3d 05 e3 7b 3d
       -0.08871751 -0.1801885 0.04429317 0.0614958
0003b0 fa 12 ea bd b3 42 03 be b8 88 76 3e 73 75 7c 3e
       -0.11429401 -0.12818412 0.24075592 0.24654178
0003c0 64 42 5d be 7c 71 34 be f7 45 a8 bb d3 d2 3f 3c
       -0.21607357 -0.17621416 -0.0051352936 0.011707979
0003d0 66 af 05 3d f1 8b d7 bd 7a ba 64 3d 58 3e 24 3e
       0.032637976 -0.105247386 0.0558419 0.16039407
0003e0 ff ba 65 bd ed 49 84 3d f4 1a aa be d7 b2 8b be
       -0.056086536 0.06459413 -0.3322369 -0.2728488
0003f0 96 09 d5 3d a1 49 e2 bd 63 14 89 be 2f cd 25 3d
       0.10402219 -0.110492 -0.26773366 0.04047888

linear2.bias f4 [3]
000000 85 df d6 3c 3c 69 98 bd 7e f5 96 bd
       0.02622963 -0.07441947 -0.07371043
